{"format": "graph-model", "generatedBy": "2.15.1", "convertedBy": "TensorFlow.js Converter v4.22.0", "signature": {"inputs": {"input_image": {"name": "input_image:0", "dtype": "DT_FLOAT", "tensorShape": {"dim": [{"size": "-1"}, {"size": "96"}, {"size": "96"}, {"size": "3"}]}}}, "outputs": {"emotion_probs": {"name": "Identity:0", "dtype": "DT_FLOAT", "tensorShape": {"dim": [{"size": "-1"}, {"size": "7"}]}}}}, "modelTopology": {"node": [{"name": "unknown_323", "op": "Const", "attr": {"value": {"tensor": {"dtype": "DT_FLOAT", "tensorShape": {}}}, "dtype": {"type": "DT_FLOAT"}}}, {"name": "StatefulPartitionedCall/cross_dataset_ensemble/tf.image.rgb_to_grayscale/rgb_to_grayscale/Tensordot/Const", "op": "Const", "attr": {"value": {"tensor": {"dtype": "DT_INT32", "tensorShape": {"dim": [{"size": "1"}]}}}, "dtype": {"type": "DT_INT32"}}}, {"name": "StatefulPartitionedCall/cross_dataset_ensemble/tf.image.rgb_to_grayscale/rgb_to_grayscale/Tensordot/axes", "op": "Const", "attr": {"value": {"tensor": {"dtype": "DT_INT32", "tensorShape": {"dim": [{"size": "1"}]}}}, "dtype": {"type": "DT_INT32"}}}, {"name": "StatefulPartitionedCall/cross_dataset_ensemble/tf.image.rgb_to_grayscale/rgb_to_grayscale/Tensordot/GatherV2_1/axis", "op": "Const", "attr": {"value": {"tensor": {"dtype": "DT_INT32", "tensorShape": {}}}, "dtype": {"type": "DT_INT32"}}}, {"name": "StatefulPartitionedCall/cross_dataset_ensemble/tf.image.rgb_to_grayscale/rgb_to_grayscale/Tensordot/Const_1", "op": "Const", "attr": {"value": {"tensor": {"dtype": "DT_INT32", "tensorShape": {"dim": [{"size": "1"}]}}}, "dtype": {"type": "DT_INT32"}}}, {"name": "StatefulPartitionedCall/cross_dataset_ensemble/tf.image.rgb_to_grayscale/rgb_to_grayscale/Tensordot/Reshape_1", "op": "Const", "attr": {"value": {"tensor": {"dtype": "DT_FLOAT", "tensorShape": {"dim": [{"size": "3"}, {"size": "1"}]}}}, "dtype": {"type": "DT_FLOAT"}}}, {"name": "StatefulPartitionedCall/cross_dataset_ensemble/tf.image.rgb_to_grayscale/rgb_to_grayscale/Tensordot/free", "op": "Const", "attr": {"value": {"tensor": {"dtype": "DT_INT32", "tensorShape": {"dim": [{"size": "3"}]}}}, "dtype": {"type": "DT_INT32"}}}, {"name": "StatefulPartitionedCall/cross_dataset_ensemble/tf.image.rgb_to_grayscale/rgb_to_grayscale/Tensordot/GatherV2/axis", "op": "Const", "attr": {"value": {"tensor": {"dtype": "DT_INT32", "tensorShape": {}}}, "dtype": {"type": "DT_INT32"}}}, {"name": "StatefulPartitionedCall/cross_dataset_ensemble/tf.image.rgb_to_grayscale/rgb_to_grayscale/Tensordot/Const_2", "op": "Const", "attr": {"value": {"tensor": {"dtype": "DT_INT32", "tensorShape": {"dim": [{}]}}}, "dtype": {"type": "DT_INT32"}}}, {"name": "StatefulPartitionedCall/cross_dataset_ensemble/tf.image.rgb_to_grayscale/rgb_to_grayscale/Tensordot/concat_1/axis", "op": "Const", "attr": {"value": {"tensor": {"dtype": "DT_INT32", "tensorShape": {}}}, "dtype": {"type": "DT_INT32"}}}, {"name": "StatefulPartitionedCall/cross_dataset_ensemble/tf.image.rgb_to_grayscale/rgb_to_grayscale/ExpandDims/dim", "op": "Const", "attr": {"value": {"tensor": {"dtype": "DT_INT32", "tensorShape": {}}}, "dtype": {"type": "DT_INT32"}}}, {"name": "StatefulPartitionedCall/cross_dataset_ensemble/tf.image.resize/resize/size", "op": "Const", "attr": {"value": {"tensor": {"dtype": "DT_INT32", "tensorShape": {"dim": [{"size": "2"}]}}}, "dtype": {"type": "DT_INT32"}}}, {"name": "StatefulPartitionedCall/cross_dataset_ensemble/sequential/conv2d/Conv2D/ReadVariableOp", "op": "Const", "attr": {"value": {"tensor": {"dtype": "DT_FLOAT", "tensorShape": {"dim": [{"size": "3"}, {"size": "3"}, {"size": "1"}, {"size": "32"}]}}}, "dtype": {"type": "DT_FLOAT"}}}, {"name": "StatefulPartitionedCall/cross_dataset_ensemble/sequential/conv2d/BiasAdd/ReadVariableOp", "op": "Const", "attr": {"value": {"tensor": {"dtype": "DT_FLOAT", "tensorShape": {"dim": [{"size": "32"}]}}}, "dtype": {"type": "DT_FLOAT"}}}, {"name": "StatefulPartitionedCall/cross_dataset_ensemble/sequential/conv2d_1/Conv2D/ReadVariableOp", "op": "Const", "attr": {"value": {"tensor": {"dtype": "DT_FLOAT", "tensorShape": {"dim": [{"size": "3"}, {"size": "3"}, {"size": "32"}, {"size": "32"}]}}}, "dtype": {"type": "DT_FLOAT"}}}, {"name": "StatefulPartitionedCall/cross_dataset_ensemble/sequential/conv2d_1/BiasAdd/ReadVariableOp", "op": "Const", "attr": {"value": {"tensor": {"dtype": "DT_FLOAT", "tensorShape": {"dim": [{"size": "32"}]}}}, "dtype": {"type": "DT_FLOAT"}}}, {"name": "StatefulPartitionedCall/cross_dataset_ensemble/sequential/conv2d_2/Conv2D/ReadVariableOp", "op": "Const", "attr": {"value": {"tensor": {"dtype": "DT_FLOAT", "tensorShape": {"dim": [{"size": "3"}, {"size": "3"}, {"size": "32"}, {"size": "64"}]}}}, "dtype": {"type": "DT_FLOAT"}}}, {"name": "StatefulPartitionedCall/cross_dataset_ensemble/sequential/conv2d_2/BiasAdd/ReadVariableOp", "op": "Const", "attr": {"value": {"tensor": {"dtype": "DT_FLOAT", "tensorShape": {"dim": [{"size": "64"}]}}}, "dtype": {"type": "DT_FLOAT"}}}, {"name": "StatefulPartitionedCall/cross_dataset_ensemble/sequential/conv2d_3/Conv2D/ReadVariableOp", "op": "Const", "attr": {"value": {"tensor": {"dtype": "DT_FLOAT", "tensorShape": {"dim": [{"size": "3"}, {"size": "3"}, {"size": "64"}, {"size": "64"}]}}}, "dtype": {"type": "DT_FLOAT"}}}, {"name": "StatefulPartitionedCall/cross_dataset_ensemble/sequential/conv2d_3/BiasAdd/ReadVariableOp", "op": "Const", "attr": {"value": {"tensor": {"dtype": "DT_FLOAT", "tensorShape": {"dim": [{"size": "64"}]}}}, "dtype": {"type": "DT_FLOAT"}}}, {"name": "StatefulPartitionedCall/cross_dataset_ensemble/sequential/conv2d_4/Conv2D/ReadVariableOp", "op": "Const", "attr": {"value": {"tensor": {"dtype": "DT_FLOAT", "tensorShape": {"dim": [{"size": "3"}, {"size": "3"}, {"size": "64"}, {"size": "128"}]}}}, "dtype": {"type": "DT_FLOAT"}}}, {"name": "StatefulPartitionedCall/cross_dataset_ensemble/sequential/conv2d_4/BiasAdd/ReadVariableOp", "op": "Const", "attr": {"value": {"tensor": {"dtype": "DT_FLOAT", "tensorShape": {"dim": [{"size": "128"}]}}}, "dtype": {"type": "DT_FLOAT"}}}, {"name": "StatefulPartitionedCall/cross_dataset_ensemble/sequential/conv2d_5/Conv2D/ReadVariableOp", "op": "Const", "attr": {"value": {"tensor": {"dtype": "DT_FLOAT", "tensorShape": {"dim": [{"size": "3"}, {"size": "3"}, {"size": "128"}, {"size": "128"}]}}}, "dtype": {"type": "DT_FLOAT"}}}, {"name": "StatefulPartitionedCall/cross_dataset_ensemble/sequential/conv2d_5/BiasAdd/ReadVariableOp", "op": "Const", "attr": {"value": {"tensor": {"dtype": "DT_FLOAT", "tensorShape": {"dim": [{"size": "128"}]}}}, "dtype": {"type": "DT_FLOAT"}}}, {"name": "StatefulPartitionedCall/cross_dataset_ensemble/sequential/conv2d_6/Conv2D/ReadVariableOp", "op": "Const", "attr": {"value": {"tensor": {"dtype": "DT_FLOAT", "tensorShape": {"dim": [{"size": "3"}, {"size": "3"}, {"size": "128"}, {"size": "256"}]}}}, "dtype": {"type": "DT_FLOAT"}}}, {"name": "StatefulPartitionedCall/cross_dataset_ensemble/sequential/conv2d_6/BiasAdd/ReadVariableOp", "op": "Const", "attr": {"value": {"tensor": {"dtype": "DT_FLOAT", "tensorShape": {"dim": [{"size": "256"}]}}}, "dtype": {"type": "DT_FLOAT"}}}, {"name": "StatefulPartitionedCall/cross_dataset_ensemble/sequential/flatten/Const", "op": "Const", "attr": {"value": {"tensor": {"dtype": "DT_INT32", "tensorShape": {"dim": [{"size": "2"}]}}}, "dtype": {"type": "DT_INT32"}}}, {"name": "StatefulPartitionedCall/cross_dataset_ensemble/sequential/dense/MatMul/ReadVariableOp", "op": "Const", "attr": {"value": {"tensor": {"dtype": "DT_FLOAT", "tensorShape": {"dim": [{"size": "2304"}, {"size": "512"}]}}}, "dtype": {"type": "DT_FLOAT"}}}, {"name": "StatefulPartitionedCall/cross_dataset_ensemble/sequential/dense/BiasAdd/ReadVariableOp", "op": "Const", "attr": {"value": {"tensor": {"dtype": "DT_FLOAT", "tensorShape": {"dim": [{"size": "512"}]}}}, "dtype": {"type": "DT_FLOAT"}}}, {"name": "StatefulPartitionedCall/cross_dataset_ensemble/sequential/batch_normalization_7/batchnorm/mul", "op": "Const", "attr": {"value": {"tensor": {"dtype": "DT_FLOAT", "tensorShape": {"dim": [{"size": "512"}]}}}, "dtype": {"type": "DT_FLOAT"}}}, {"name": "StatefulPartitionedCall/cross_dataset_ensemble/sequential/batch_normalization_7/batchnorm/sub", "op": "Const", "attr": {"value": {"tensor": {"dtype": "DT_FLOAT", "tensorShape": {"dim": [{"size": "512"}]}}}, "dtype": {"type": "DT_FLOAT"}}}, {"name": "StatefulPartitionedCall/cross_dataset_ensemble/sequential/dense_1/MatMul/ReadVariableOp", "op": "Const", "attr": {"value": {"tensor": {"dtype": "DT_FLOAT", "tensorShape": {"dim": [{"size": "512"}, {"size": "256"}]}}}, "dtype": {"type": "DT_FLOAT"}}}, {"name": "StatefulPartitionedCall/cross_dataset_ensemble/sequential/dense_1/BiasAdd/ReadVariableOp", "op": "Const", "attr": {"value": {"tensor": {"dtype": "DT_FLOAT", "tensorShape": {"dim": [{"size": "256"}]}}}, "dtype": {"type": "DT_FLOAT"}}}, {"name": "StatefulPartitionedCall/cross_dataset_ensemble/sequential/batch_normalization_8/batchnorm/mul", "op": "Const", "attr": {"value": {"tensor": {"dtype": "DT_FLOAT", "tensorShape": {"dim": [{"size": "256"}]}}}, "dtype": {"type": "DT_FLOAT"}}}, {"name": "StatefulPartitionedCall/cross_dataset_ensemble/sequential/batch_normalization_8/batchnorm/sub", "op": "Const", "attr": {"value": {"tensor": {"dtype": "DT_FLOAT", "tensorShape": {"dim": [{"size": "256"}]}}}, "dtype": {"type": "DT_FLOAT"}}}, {"name": "StatefulPartitionedCall/cross_dataset_ensemble/sequential/dense_2/MatMul/ReadVariableOp", "op": "Const", "attr": {"value": {"tensor": {"dtype": "DT_FLOAT", "tensorShape": {"dim": [{"size": "256"}, {"size": "7"}]}}}, "dtype": {"type": "DT_FLOAT"}}}, {"name": "StatefulPartitionedCall/cross_dataset_ensemble/sequential/dense_2/BiasAdd/ReadVariableOp", "op": "Const", "attr": {"value": {"tensor": {"dtype": "DT_FLOAT", "tensorShape": {"dim": [{"size": "7"}]}}}, "dtype": {"type": "DT_FLOAT"}}}, {"name": "unknown_324", "op": "Const", "attr": {"value": {"tensor": {"dtype": "DT_FLOAT", "tensorShape": {}}}, "dtype": {"type": "DT_FLOAT"}}}, {"name": "StatefulPartitionedCall/cross_dataset_ensemble/model/MobilenetV3large/tf.math.multiply_27/Mul/y", "op": "Const", "attr": {"value": {"tensor": {"dtype": "DT_FLOAT", "tensorShape": {}}}, "dtype": {"type": "DT_FLOAT"}}}, {"name": "StatefulPartitionedCall/cross_dataset_ensemble/model/MobilenetV3large/tf.math.multiply_26/Mul/y", "op": "Const", "attr": {"value": {"tensor": {"dtype": "DT_FLOAT", "tensorShape": {}}}, "dtype": {"type": "DT_FLOAT"}}}, {"name": "StatefulPartitionedCall/cross_dataset_ensemble/model/MobilenetV3large/expanded_conv_14/squeeze_excite/AvgPool/Mean/reduction_indices", "op": "Const", "attr": {"value": {"tensor": {"dtype": "DT_INT32", "tensorShape": {"dim": [{"size": "2"}]}}}, "dtype": {"type": "DT_INT32"}}}, {"name": "StatefulPartitionedCall/cross_dataset_ensemble/model/MobilenetV3large/expanded_conv_14/squeeze_excite/Conv/Conv2D/ReadVariableOp", "op": "Const", "attr": {"value": {"tensor": {"dtype": "DT_FLOAT", "tensorShape": {"dim": [{"size": "1"}, {"size": "1"}, {"size": "960"}, {"size": "240"}]}}}, "dtype": {"type": "DT_FLOAT"}}}, {"name": "StatefulPartitionedCall/cross_dataset_ensemble/model/MobilenetV3large/expanded_conv_14/squeeze_excite/Conv/BiasAdd/ReadVariableOp", "op": "Const", "attr": {"value": {"tensor": {"dtype": "DT_FLOAT", "tensorShape": {"dim": [{"size": "240"}]}}}, "dtype": {"type": "DT_FLOAT"}}}, {"name": "StatefulPartitionedCall/cross_dataset_ensemble/model/MobilenetV3large/expanded_conv_14/squeeze_excite/Conv_1/Conv2D/ReadVariableOp", "op": "Const", "attr": {"value": {"tensor": {"dtype": "DT_FLOAT", "tensorShape": {"dim": [{"size": "1"}, {"size": "1"}, {"size": "240"}, {"size": "960"}]}}}, "dtype": {"type": "DT_FLOAT"}}}, {"name": "StatefulPartitionedCall/cross_dataset_ensemble/model/MobilenetV3large/expanded_conv_14/squeeze_excite/Conv_1/BiasAdd/ReadVariableOp", "op": "Const", "attr": {"value": {"tensor": {"dtype": "DT_FLOAT", "tensorShape": {"dim": [{"size": "960"}]}}}, "dtype": {"type": "DT_FLOAT"}}}, {"name": "StatefulPartitionedCall/cross_dataset_ensemble/model/MobilenetV3large/tf.__operators__.add_26/y", "op": "Const", "attr": {"value": {"tensor": {"dtype": "DT_FLOAT", "tensorShape": {}}}, "dtype": {"type": "DT_FLOAT"}}}, {"name": "StatefulPartitionedCall/cross_dataset_ensemble/model/MobilenetV3large/tf.math.multiply_25/Mul/y", "op": "Const", "attr": {"value": {"tensor": {"dtype": "DT_FLOAT", "tensorShape": {}}}, "dtype": {"type": "DT_FLOAT"}}}, {"name": "StatefulPartitionedCall/cross_dataset_ensemble/model/MobilenetV3large/tf.math.multiply_24/Mul/y", "op": "Const", "attr": {"value": {"tensor": {"dtype": "DT_FLOAT", "tensorShape": {}}}, "dtype": {"type": "DT_FLOAT"}}}, {"name": "StatefulPartitionedCall/cross_dataset_ensemble/model/MobilenetV3large/tf.math.multiply_23/Mul/y", "op": "Const", "attr": {"value": {"tensor": {"dtype": "DT_FLOAT", "tensorShape": {}}}, "dtype": {"type": "DT_FLOAT"}}}, {"name": "StatefulPartitionedCall/cross_dataset_ensemble/model/MobilenetV3large/expanded_conv_13/squeeze_excite/AvgPool/Mean/reduction_indices", "op": "Const", "attr": {"value": {"tensor": {"dtype": "DT_INT32", "tensorShape": {"dim": [{"size": "2"}]}}}, "dtype": {"type": "DT_INT32"}}}, {"name": "StatefulPartitionedCall/cross_dataset_ensemble/model/MobilenetV3large/expanded_conv_13/squeeze_excite/Conv/Conv2D/ReadVariableOp", "op": "Const", "attr": {"value": {"tensor": {"dtype": "DT_FLOAT", "tensorShape": {"dim": [{"size": "1"}, {"size": "1"}, {"size": "960"}, {"size": "240"}]}}}, "dtype": {"type": "DT_FLOAT"}}}, {"name": "StatefulPartitionedCall/cross_dataset_ensemble/model/MobilenetV3large/expanded_conv_13/squeeze_excite/Conv/BiasAdd/ReadVariableOp", "op": "Const", "attr": {"value": {"tensor": {"dtype": "DT_FLOAT", "tensorShape": {"dim": [{"size": "240"}]}}}, "dtype": {"type": "DT_FLOAT"}}}, {"name": "StatefulPartitionedCall/cross_dataset_ensemble/model/MobilenetV3large/expanded_conv_13/squeeze_excite/Conv_1/Conv2D/ReadVariableOp", "op": "Const", "attr": {"value": {"tensor": {"dtype": "DT_FLOAT", "tensorShape": {"dim": [{"size": "1"}, {"size": "1"}, {"size": "240"}, {"size": "960"}]}}}, "dtype": {"type": "DT_FLOAT"}}}, {"name": "StatefulPartitionedCall/cross_dataset_ensemble/model/MobilenetV3large/expanded_conv_13/squeeze_excite/Conv_1/BiasAdd/ReadVariableOp", "op": "Const", "attr": {"value": {"tensor": {"dtype": "DT_FLOAT", "tensorShape": {"dim": [{"size": "960"}]}}}, "dtype": {"type": "DT_FLOAT"}}}, {"name": "StatefulPartitionedCall/cross_dataset_ensemble/model/MobilenetV3large/tf.__operators__.add_23/y", "op": "Const", "attr": {"value": {"tensor": {"dtype": "DT_FLOAT", "tensorShape": {}}}, "dtype": {"type": "DT_FLOAT"}}}, {"name": "StatefulPartitionedCall/cross_dataset_ensemble/model/MobilenetV3large/tf.math.multiply_22/Mul/y", "op": "Const", "attr": {"value": {"tensor": {"dtype": "DT_FLOAT", "tensorShape": {}}}, "dtype": {"type": "DT_FLOAT"}}}, {"name": "StatefulPartitionedCall/cross_dataset_ensemble/model/MobilenetV3large/tf.math.multiply_21/Mul/y", "op": "Const", "attr": {"value": {"tensor": {"dtype": "DT_FLOAT", "tensorShape": {}}}, "dtype": {"type": "DT_FLOAT"}}}, {"name": "StatefulPartitionedCall/cross_dataset_ensemble/model/MobilenetV3large/tf.math.multiply_20/Mul/y", "op": "Const", "attr": {"value": {"tensor": {"dtype": "DT_FLOAT", "tensorShape": {}}}, "dtype": {"type": "DT_FLOAT"}}}, {"name": "StatefulPartitionedCall/cross_dataset_ensemble/model/MobilenetV3large/expanded_conv_12/squeeze_excite/AvgPool/Mean/reduction_indices", "op": "Const", "attr": {"value": {"tensor": {"dtype": "DT_INT32", "tensorShape": {"dim": [{"size": "2"}]}}}, "dtype": {"type": "DT_INT32"}}}, {"name": "StatefulPartitionedCall/cross_dataset_ensemble/model/MobilenetV3large/expanded_conv_12/squeeze_excite/Conv/Conv2D/ReadVariableOp", "op": "Const", "attr": {"value": {"tensor": {"dtype": "DT_FLOAT", "tensorShape": {"dim": [{"size": "1"}, {"size": "1"}, {"size": "672"}, {"size": "168"}]}}}, "dtype": {"type": "DT_FLOAT"}}}, {"name": "StatefulPartitionedCall/cross_dataset_ensemble/model/MobilenetV3large/expanded_conv_12/squeeze_excite/Conv/BiasAdd/ReadVariableOp", "op": "Const", "attr": {"value": {"tensor": {"dtype": "DT_FLOAT", "tensorShape": {"dim": [{"size": "168"}]}}}, "dtype": {"type": "DT_FLOAT"}}}, {"name": "StatefulPartitionedCall/cross_dataset_ensemble/model/MobilenetV3large/expanded_conv_12/squeeze_excite/Conv_1/Conv2D/ReadVariableOp", "op": "Const", "attr": {"value": {"tensor": {"dtype": "DT_FLOAT", "tensorShape": {"dim": [{"size": "1"}, {"size": "1"}, {"size": "168"}, {"size": "672"}]}}}, "dtype": {"type": "DT_FLOAT"}}}, {"name": "StatefulPartitionedCall/cross_dataset_ensemble/model/MobilenetV3large/expanded_conv_12/squeeze_excite/Conv_1/BiasAdd/ReadVariableOp", "op": "Const", "attr": {"value": {"tensor": {"dtype": "DT_FLOAT", "tensorShape": {"dim": [{"size": "672"}]}}}, "dtype": {"type": "DT_FLOAT"}}}, {"name": "StatefulPartitionedCall/cross_dataset_ensemble/model/MobilenetV3large/tf.__operators__.add_20/y", "op": "Const", "attr": {"value": {"tensor": {"dtype": "DT_FLOAT", "tensorShape": {}}}, "dtype": {"type": "DT_FLOAT"}}}, {"name": "StatefulPartitionedCall/cross_dataset_ensemble/model/MobilenetV3large/tf.math.multiply_19/Mul/y", "op": "Const", "attr": {"value": {"tensor": {"dtype": "DT_FLOAT", "tensorShape": {}}}, "dtype": {"type": "DT_FLOAT"}}}, {"name": "StatefulPartitionedCall/cross_dataset_ensemble/model/MobilenetV3large/tf.math.multiply_18/Mul/y", "op": "Const", "attr": {"value": {"tensor": {"dtype": "DT_FLOAT", "tensorShape": {}}}, "dtype": {"type": "DT_FLOAT"}}}, {"name": "StatefulPartitionedCall/cross_dataset_ensemble/model/MobilenetV3large/tf.math.multiply_17/Mul/y", "op": "Const", "attr": {"value": {"tensor": {"dtype": "DT_FLOAT", "tensorShape": {}}}, "dtype": {"type": "DT_FLOAT"}}}, {"name": "StatefulPartitionedCall/cross_dataset_ensemble/model/MobilenetV3large/expanded_conv_11/squeeze_excite/AvgPool/Mean/reduction_indices", "op": "Const", "attr": {"value": {"tensor": {"dtype": "DT_INT32", "tensorShape": {"dim": [{"size": "2"}]}}}, "dtype": {"type": "DT_INT32"}}}, {"name": "StatefulPartitionedCall/cross_dataset_ensemble/model/MobilenetV3large/expanded_conv_11/squeeze_excite/Conv/Conv2D/ReadVariableOp", "op": "Const", "attr": {"value": {"tensor": {"dtype": "DT_FLOAT", "tensorShape": {"dim": [{"size": "1"}, {"size": "1"}, {"size": "672"}, {"size": "168"}]}}}, "dtype": {"type": "DT_FLOAT"}}}, {"name": "StatefulPartitionedCall/cross_dataset_ensemble/model/MobilenetV3large/expanded_conv_11/squeeze_excite/Conv/BiasAdd/ReadVariableOp", "op": "Const", "attr": {"value": {"tensor": {"dtype": "DT_FLOAT", "tensorShape": {"dim": [{"size": "168"}]}}}, "dtype": {"type": "DT_FLOAT"}}}, {"name": "StatefulPartitionedCall/cross_dataset_ensemble/model/MobilenetV3large/expanded_conv_11/squeeze_excite/Conv_1/Conv2D/ReadVariableOp", "op": "Const", "attr": {"value": {"tensor": {"dtype": "DT_FLOAT", "tensorShape": {"dim": [{"size": "1"}, {"size": "1"}, {"size": "168"}, {"size": "672"}]}}}, "dtype": {"type": "DT_FLOAT"}}}, {"name": "StatefulPartitionedCall/cross_dataset_ensemble/model/MobilenetV3large/expanded_conv_11/squeeze_excite/Conv_1/BiasAdd/ReadVariableOp", "op": "Const", "attr": {"value": {"tensor": {"dtype": "DT_FLOAT", "tensorShape": {"dim": [{"size": "672"}]}}}, "dtype": {"type": "DT_FLOAT"}}}, {"name": "StatefulPartitionedCall/cross_dataset_ensemble/model/MobilenetV3large/tf.__operators__.add_17/y", "op": "Const", "attr": {"value": {"tensor": {"dtype": "DT_FLOAT", "tensorShape": {}}}, "dtype": {"type": "DT_FLOAT"}}}, {"name": "StatefulPartitionedCall/cross_dataset_ensemble/model/MobilenetV3large/tf.math.multiply_16/Mul/y", "op": "Const", "attr": {"value": {"tensor": {"dtype": "DT_FLOAT", "tensorShape": {}}}, "dtype": {"type": "DT_FLOAT"}}}, {"name": "StatefulPartitionedCall/cross_dataset_ensemble/model/MobilenetV3large/tf.math.multiply_15/Mul/y", "op": "Const", "attr": {"value": {"tensor": {"dtype": "DT_FLOAT", "tensorShape": {}}}, "dtype": {"type": "DT_FLOAT"}}}, {"name": "StatefulPartitionedCall/cross_dataset_ensemble/model/MobilenetV3large/tf.math.multiply_14/Mul/y", "op": "Const", "attr": {"value": {"tensor": {"dtype": "DT_FLOAT", "tensorShape": {}}}, "dtype": {"type": "DT_FLOAT"}}}, {"name": "StatefulPartitionedCall/cross_dataset_ensemble/model/MobilenetV3large/expanded_conv_10/squeeze_excite/AvgPool/Mean/reduction_indices", "op": "Const", "attr": {"value": {"tensor": {"dtype": "DT_INT32", "tensorShape": {"dim": [{"size": "2"}]}}}, "dtype": {"type": "DT_INT32"}}}, {"name": "StatefulPartitionedCall/cross_dataset_ensemble/model/MobilenetV3large/expanded_conv_10/squeeze_excite/Conv/Conv2D/ReadVariableOp", "op": "Const", "attr": {"value": {"tensor": {"dtype": "DT_FLOAT", "tensorShape": {"dim": [{"size": "1"}, {"size": "1"}, {"size": "480"}, {"size": "120"}]}}}, "dtype": {"type": "DT_FLOAT"}}}, {"name": "StatefulPartitionedCall/cross_dataset_ensemble/model/MobilenetV3large/expanded_conv_10/squeeze_excite/Conv/BiasAdd/ReadVariableOp", "op": "Const", "attr": {"value": {"tensor": {"dtype": "DT_FLOAT", "tensorShape": {"dim": [{"size": "120"}]}}}, "dtype": {"type": "DT_FLOAT"}}}, {"name": "StatefulPartitionedCall/cross_dataset_ensemble/model/MobilenetV3large/expanded_conv_10/squeeze_excite/Conv_1/Conv2D/ReadVariableOp", "op": "Const", "attr": {"value": {"tensor": {"dtype": "DT_FLOAT", "tensorShape": {"dim": [{"size": "1"}, {"size": "1"}, {"size": "120"}, {"size": "480"}]}}}, "dtype": {"type": "DT_FLOAT"}}}, {"name": "StatefulPartitionedCall/cross_dataset_ensemble/model/MobilenetV3large/expanded_conv_10/squeeze_excite/Conv_1/BiasAdd/ReadVariableOp", "op": "Const", "attr": {"value": {"tensor": {"dtype": "DT_FLOAT", "tensorShape": {"dim": [{"size": "480"}]}}}, "dtype": {"type": "DT_FLOAT"}}}, {"name": "StatefulPartitionedCall/cross_dataset_ensemble/model/MobilenetV3large/tf.__operators__.add_14/y", "op": "Const", "attr": {"value": {"tensor": {"dtype": "DT_FLOAT", "tensorShape": {}}}, "dtype": {"type": "DT_FLOAT"}}}, {"name": "StatefulPartitionedCall/cross_dataset_ensemble/model/MobilenetV3large/tf.math.multiply_13/Mul/y", "op": "Const", "attr": {"value": {"tensor": {"dtype": "DT_FLOAT", "tensorShape": {}}}, "dtype": {"type": "DT_FLOAT"}}}, {"name": "StatefulPartitionedCall/cross_dataset_ensemble/model/MobilenetV3large/tf.math.multiply_12/Mul/y", "op": "Const", "attr": {"value": {"tensor": {"dtype": "DT_FLOAT", "tensorShape": {}}}, "dtype": {"type": "DT_FLOAT"}}}, {"name": "StatefulPartitionedCall/cross_dataset_ensemble/model/MobilenetV3large/tf.math.multiply_11/Mul/y", "op": "Const", "attr": {"value": {"tensor": {"dtype": "DT_FLOAT", "tensorShape": {}}}, "dtype": {"type": "DT_FLOAT"}}}, {"name": "StatefulPartitionedCall/cross_dataset_ensemble/model/MobilenetV3large/tf.math.multiply_10/Mul/y", "op": "Const", "attr": {"value": {"tensor": {"dtype": "DT_FLOAT", "tensorShape": {}}}, "dtype": {"type": "DT_FLOAT"}}}, {"name": "StatefulPartitionedCall/cross_dataset_ensemble/model/MobilenetV3large/tf.math.multiply_9/Mul/y", "op": "Const", "attr": {"value": {"tensor": {"dtype": "DT_FLOAT", "tensorShape": {}}}, "dtype": {"type": "DT_FLOAT"}}}, {"name": "StatefulPartitionedCall/cross_dataset_ensemble/model/MobilenetV3large/tf.math.multiply_8/Mul/y", "op": "Const", "attr": {"value": {"tensor": {"dtype": "DT_FLOAT", "tensorShape": {}}}, "dtype": {"type": "DT_FLOAT"}}}, {"name": "StatefulPartitionedCall/cross_dataset_ensemble/model/MobilenetV3large/tf.math.multiply_7/Mul/y", "op": "Const", "attr": {"value": {"tensor": {"dtype": "DT_FLOAT", "tensorShape": {}}}, "dtype": {"type": "DT_FLOAT"}}}, {"name": "StatefulPartitionedCall/cross_dataset_ensemble/model/MobilenetV3large/tf.math.multiply_6/Mul/y", "op": "Const", "attr": {"value": {"tensor": {"dtype": "DT_FLOAT", "tensorShape": {}}}, "dtype": {"type": "DT_FLOAT"}}}, {"name": "StatefulPartitionedCall/cross_dataset_ensemble/model/MobilenetV3large/tf.math.multiply_5/Mul/y", "op": "Const", "attr": {"value": {"tensor": {"dtype": "DT_FLOAT", "tensorShape": {}}}, "dtype": {"type": "DT_FLOAT"}}}, {"name": "StatefulPartitionedCall/cross_dataset_ensemble/model/MobilenetV3large/tf.math.multiply_4/Mul/y", "op": "Const", "attr": {"value": {"tensor": {"dtype": "DT_FLOAT", "tensorShape": {}}}, "dtype": {"type": "DT_FLOAT"}}}, {"name": "StatefulPartitionedCall/cross_dataset_ensemble/model/MobilenetV3large/tf.math.multiply_3/Mul/y", "op": "Const", "attr": {"value": {"tensor": {"dtype": "DT_FLOAT", "tensorShape": {}}}, "dtype": {"type": "DT_FLOAT"}}}, {"name": "StatefulPartitionedCall/cross_dataset_ensemble/model/MobilenetV3large/expanded_conv_5/squeeze_excite/AvgPool/Mean/reduction_indices", "op": "Const", "attr": {"value": {"tensor": {"dtype": "DT_INT32", "tensorShape": {"dim": [{"size": "2"}]}}}, "dtype": {"type": "DT_INT32"}}}, {"name": "StatefulPartitionedCall/cross_dataset_ensemble/model/MobilenetV3large/expanded_conv_5/squeeze_excite/Conv/Conv2D/ReadVariableOp", "op": "Const", "attr": {"value": {"tensor": {"dtype": "DT_FLOAT", "tensorShape": {"dim": [{"size": "1"}, {"size": "1"}, {"size": "120"}, {"size": "32"}]}}}, "dtype": {"type": "DT_FLOAT"}}}, {"name": "StatefulPartitionedCall/cross_dataset_ensemble/model/MobilenetV3large/expanded_conv_5/squeeze_excite/Conv/BiasAdd/ReadVariableOp", "op": "Const", "attr": {"value": {"tensor": {"dtype": "DT_FLOAT", "tensorShape": {"dim": [{"size": "32"}]}}}, "dtype": {"type": "DT_FLOAT"}}}, {"name": "StatefulPartitionedCall/cross_dataset_ensemble/model/MobilenetV3large/expanded_conv_5/squeeze_excite/Conv_1/Conv2D/ReadVariableOp", "op": "Const", "attr": {"value": {"tensor": {"dtype": "DT_FLOAT", "tensorShape": {"dim": [{"size": "1"}, {"size": "1"}, {"size": "32"}, {"size": "120"}]}}}, "dtype": {"type": "DT_FLOAT"}}}, {"name": "StatefulPartitionedCall/cross_dataset_ensemble/model/MobilenetV3large/expanded_conv_5/squeeze_excite/Conv_1/BiasAdd/ReadVariableOp", "op": "Const", "attr": {"value": {"tensor": {"dtype": "DT_FLOAT", "tensorShape": {"dim": [{"size": "120"}]}}}, "dtype": {"type": "DT_FLOAT"}}}, {"name": "StatefulPartitionedCall/cross_dataset_ensemble/model/MobilenetV3large/tf.__operators__.add_3/y", "op": "Const", "attr": {"value": {"tensor": {"dtype": "DT_FLOAT", "tensorShape": {}}}, "dtype": {"type": "DT_FLOAT"}}}, {"name": "StatefulPartitionedCall/cross_dataset_ensemble/model/MobilenetV3large/tf.math.multiply_2/Mul/y", "op": "Const", "attr": {"value": {"tensor": {"dtype": "DT_FLOAT", "tensorShape": {}}}, "dtype": {"type": "DT_FLOAT"}}}, {"name": "StatefulPartitionedCall/cross_dataset_ensemble/model/MobilenetV3large/expanded_conv_4/squeeze_excite/AvgPool/Mean/reduction_indices", "op": "Const", "attr": {"value": {"tensor": {"dtype": "DT_INT32", "tensorShape": {"dim": [{"size": "2"}]}}}, "dtype": {"type": "DT_INT32"}}}, {"name": "StatefulPartitionedCall/cross_dataset_ensemble/model/MobilenetV3large/expanded_conv_4/squeeze_excite/Conv/Conv2D/ReadVariableOp", "op": "Const", "attr": {"value": {"tensor": {"dtype": "DT_FLOAT", "tensorShape": {"dim": [{"size": "1"}, {"size": "1"}, {"size": "120"}, {"size": "32"}]}}}, "dtype": {"type": "DT_FLOAT"}}}, {"name": "StatefulPartitionedCall/cross_dataset_ensemble/model/MobilenetV3large/expanded_conv_4/squeeze_excite/Conv/BiasAdd/ReadVariableOp", "op": "Const", "attr": {"value": {"tensor": {"dtype": "DT_FLOAT", "tensorShape": {"dim": [{"size": "32"}]}}}, "dtype": {"type": "DT_FLOAT"}}}, {"name": "StatefulPartitionedCall/cross_dataset_ensemble/model/MobilenetV3large/expanded_conv_4/squeeze_excite/Conv_1/Conv2D/ReadVariableOp", "op": "Const", "attr": {"value": {"tensor": {"dtype": "DT_FLOAT", "tensorShape": {"dim": [{"size": "1"}, {"size": "1"}, {"size": "32"}, {"size": "120"}]}}}, "dtype": {"type": "DT_FLOAT"}}}, {"name": "StatefulPartitionedCall/cross_dataset_ensemble/model/MobilenetV3large/expanded_conv_4/squeeze_excite/Conv_1/BiasAdd/ReadVariableOp", "op": "Const", "attr": {"value": {"tensor": {"dtype": "DT_FLOAT", "tensorShape": {"dim": [{"size": "120"}]}}}, "dtype": {"type": "DT_FLOAT"}}}, {"name": "StatefulPartitionedCall/cross_dataset_ensemble/model/MobilenetV3large/tf.__operators__.add_2/y", "op": "Const", "attr": {"value": {"tensor": {"dtype": "DT_FLOAT", "tensorShape": {}}}, "dtype": {"type": "DT_FLOAT"}}}, {"name": "StatefulPartitionedCall/cross_dataset_ensemble/model/MobilenetV3large/tf.math.multiply_1/Mul/y", "op": "Const", "attr": {"value": {"tensor": {"dtype": "DT_FLOAT", "tensorShape": {}}}, "dtype": {"type": "DT_FLOAT"}}}, {"name": "StatefulPartitionedCall/cross_dataset_ensemble/model/MobilenetV3large/expanded_conv_3/squeeze_excite/AvgPool/Mean/reduction_indices", "op": "Const", "attr": {"value": {"tensor": {"dtype": "DT_INT32", "tensorShape": {"dim": [{"size": "2"}]}}}, "dtype": {"type": "DT_INT32"}}}, {"name": "StatefulPartitionedCall/cross_dataset_ensemble/model/MobilenetV3large/expanded_conv_3/squeeze_excite/Conv/Conv2D/ReadVariableOp", "op": "Const", "attr": {"value": {"tensor": {"dtype": "DT_FLOAT", "tensorShape": {"dim": [{"size": "1"}, {"size": "1"}, {"size": "72"}, {"size": "24"}]}}}, "dtype": {"type": "DT_FLOAT"}}}, {"name": "StatefulPartitionedCall/cross_dataset_ensemble/model/MobilenetV3large/expanded_conv_3/squeeze_excite/Conv/BiasAdd/ReadVariableOp", "op": "Const", "attr": {"value": {"tensor": {"dtype": "DT_FLOAT", "tensorShape": {"dim": [{"size": "24"}]}}}, "dtype": {"type": "DT_FLOAT"}}}, {"name": "StatefulPartitionedCall/cross_dataset_ensemble/model/MobilenetV3large/expanded_conv_3/squeeze_excite/Conv_1/Conv2D/ReadVariableOp", "op": "Const", "attr": {"value": {"tensor": {"dtype": "DT_FLOAT", "tensorShape": {"dim": [{"size": "1"}, {"size": "1"}, {"size": "24"}, {"size": "72"}]}}}, "dtype": {"type": "DT_FLOAT"}}}, {"name": "StatefulPartitionedCall/cross_dataset_ensemble/model/MobilenetV3large/expanded_conv_3/squeeze_excite/Conv_1/BiasAdd/ReadVariableOp", "op": "Const", "attr": {"value": {"tensor": {"dtype": "DT_FLOAT", "tensorShape": {"dim": [{"size": "72"}]}}}, "dtype": {"type": "DT_FLOAT"}}}, {"name": "StatefulPartitionedCall/cross_dataset_ensemble/model/MobilenetV3large/tf.__operators__.add_1/y", "op": "Const", "attr": {"value": {"tensor": {"dtype": "DT_FLOAT", "tensorShape": {}}}, "dtype": {"type": "DT_FLOAT"}}}, {"name": "StatefulPartitionedCall/cross_dataset_ensemble/model/MobilenetV3large/tf.math.multiply/Mul/y", "op": "Const", "attr": {"value": {"tensor": {"dtype": "DT_FLOAT", "tensorShape": {}}}, "dtype": {"type": "DT_FLOAT"}}}, {"name": "StatefulPartitionedCall/cross_dataset_ensemble/model/MobilenetV3large/rescaling/Cast/x", "op": "Const", "attr": {"value": {"tensor": {"dtype": "DT_FLOAT", "tensorShape": {}}}, "dtype": {"type": "DT_FLOAT"}}}, {"name": "StatefulPartitionedCall/cross_dataset_ensemble/model/MobilenetV3large/rescaling/Cast_1/x", "op": "Const", "attr": {"value": {"tensor": {"dtype": "DT_FLOAT", "tensorShape": {}}}, "dtype": {"type": "DT_FLOAT"}}}, {"name": "StatefulPartitionedCall/cross_dataset_ensemble/model/MobilenetV3large/tf.__operators__.add/y", "op": "Const", "attr": {"value": {"tensor": {"dtype": "DT_FLOAT", "tensorShape": {}}}, "dtype": {"type": "DT_FLOAT"}}}, {"name": "StatefulPartitionedCall/cross_dataset_ensemble/model/MobilenetV3large/expanded_conv_1/depthwise/pad/Pad/paddings", "op": "Const", "attr": {"value": {"tensor": {"dtype": "DT_INT32", "tensorShape": {"dim": [{"size": "4"}, {"size": "2"}]}}}, "dtype": {"type": "DT_INT32"}}}, {"name": "StatefulPartitionedCall/cross_dataset_ensemble/model/MobilenetV3large/expanded_conv_3/depthwise/pad/Pad/paddings", "op": "Const", "attr": {"value": {"tensor": {"dtype": "DT_INT32", "tensorShape": {"dim": [{"size": "4"}, {"size": "2"}]}}}, "dtype": {"type": "DT_INT32"}}}, {"name": "StatefulPartitionedCall/cross_dataset_ensemble/model/MobilenetV3large/tf.__operators__.add_4/y", "op": "Const", "attr": {"value": {"tensor": {"dtype": "DT_FLOAT", "tensorShape": {}}}, "dtype": {"type": "DT_FLOAT"}}}, {"name": "StatefulPartitionedCall/cross_dataset_ensemble/model/MobilenetV3large/expanded_conv_6/depthwise/pad/Pad/paddings", "op": "Const", "attr": {"value": {"tensor": {"dtype": "DT_INT32", "tensorShape": {"dim": [{"size": "4"}, {"size": "2"}]}}}, "dtype": {"type": "DT_INT32"}}}, {"name": "StatefulPartitionedCall/cross_dataset_ensemble/model/MobilenetV3large/tf.__operators__.add_5/y", "op": "Const", "attr": {"value": {"tensor": {"dtype": "DT_FLOAT", "tensorShape": {}}}, "dtype": {"type": "DT_FLOAT"}}}, {"name": "StatefulPartitionedCall/cross_dataset_ensemble/model/MobilenetV3large/tf.__operators__.add_6/y", "op": "Const", "attr": {"value": {"tensor": {"dtype": "DT_FLOAT", "tensorShape": {}}}, "dtype": {"type": "DT_FLOAT"}}}, {"name": "StatefulPartitionedCall/cross_dataset_ensemble/model/MobilenetV3large/tf.__operators__.add_7/y", "op": "Const", "attr": {"value": {"tensor": {"dtype": "DT_FLOAT", "tensorShape": {}}}, "dtype": {"type": "DT_FLOAT"}}}, {"name": "StatefulPartitionedCall/cross_dataset_ensemble/model/MobilenetV3large/tf.__operators__.add_8/y", "op": "Const", "attr": {"value": {"tensor": {"dtype": "DT_FLOAT", "tensorShape": {}}}, "dtype": {"type": "DT_FLOAT"}}}, {"name": "StatefulPartitionedCall/cross_dataset_ensemble/model/MobilenetV3large/tf.__operators__.add_9/y", "op": "Const", "attr": {"value": {"tensor": {"dtype": "DT_FLOAT", "tensorShape": {}}}, "dtype": {"type": "DT_FLOAT"}}}, {"name": "StatefulPartitionedCall/cross_dataset_ensemble/model/MobilenetV3large/tf.__operators__.add_10/y", "op": "Const", "attr": {"value": {"tensor": {"dtype": "DT_FLOAT", "tensorShape": {}}}, "dtype": {"type": "DT_FLOAT"}}}, {"name": "StatefulPartitionedCall/cross_dataset_ensemble/model/MobilenetV3large/tf.__operators__.add_11/y", "op": "Const", "attr": {"value": {"tensor": {"dtype": "DT_FLOAT", "tensorShape": {}}}, "dtype": {"type": "DT_FLOAT"}}}, {"name": "StatefulPartitionedCall/cross_dataset_ensemble/model/MobilenetV3large/tf.__operators__.add_12/y", "op": "Const", "attr": {"value": {"tensor": {"dtype": "DT_FLOAT", "tensorShape": {}}}, "dtype": {"type": "DT_FLOAT"}}}, {"name": "StatefulPartitionedCall/cross_dataset_ensemble/model/MobilenetV3large/tf.__operators__.add_13/y", "op": "Const", "attr": {"value": {"tensor": {"dtype": "DT_FLOAT", "tensorShape": {}}}, "dtype": {"type": "DT_FLOAT"}}}, {"name": "StatefulPartitionedCall/cross_dataset_ensemble/model/MobilenetV3large/tf.__operators__.add_15/y", "op": "Const", "attr": {"value": {"tensor": {"dtype": "DT_FLOAT", "tensorShape": {}}}, "dtype": {"type": "DT_FLOAT"}}}, {"name": "StatefulPartitionedCall/cross_dataset_ensemble/model/MobilenetV3large/tf.__operators__.add_16/y", "op": "Const", "attr": {"value": {"tensor": {"dtype": "DT_FLOAT", "tensorShape": {}}}, "dtype": {"type": "DT_FLOAT"}}}, {"name": "StatefulPartitionedCall/cross_dataset_ensemble/model/MobilenetV3large/tf.__operators__.add_18/y", "op": "Const", "attr": {"value": {"tensor": {"dtype": "DT_FLOAT", "tensorShape": {}}}, "dtype": {"type": "DT_FLOAT"}}}, {"name": "StatefulPartitionedCall/cross_dataset_ensemble/model/MobilenetV3large/expanded_conv_12/depthwise/pad/Pad/paddings", "op": "Const", "attr": {"value": {"tensor": {"dtype": "DT_INT32", "tensorShape": {"dim": [{"size": "4"}, {"size": "2"}]}}}, "dtype": {"type": "DT_INT32"}}}, {"name": "StatefulPartitionedCall/cross_dataset_ensemble/model/MobilenetV3large/tf.__operators__.add_19/y", "op": "Const", "attr": {"value": {"tensor": {"dtype": "DT_FLOAT", "tensorShape": {}}}, "dtype": {"type": "DT_FLOAT"}}}, {"name": "StatefulPartitionedCall/cross_dataset_ensemble/model/MobilenetV3large/tf.__operators__.add_21/y", "op": "Const", "attr": {"value": {"tensor": {"dtype": "DT_FLOAT", "tensorShape": {}}}, "dtype": {"type": "DT_FLOAT"}}}, {"name": "StatefulPartitionedCall/cross_dataset_ensemble/model/MobilenetV3large/tf.__operators__.add_22/y", "op": "Const", "attr": {"value": {"tensor": {"dtype": "DT_FLOAT", "tensorShape": {}}}, "dtype": {"type": "DT_FLOAT"}}}, {"name": "StatefulPartitionedCall/cross_dataset_ensemble/model/MobilenetV3large/tf.__operators__.add_24/y", "op": "Const", "attr": {"value": {"tensor": {"dtype": "DT_FLOAT", "tensorShape": {}}}, "dtype": {"type": "DT_FLOAT"}}}, {"name": "StatefulPartitionedCall/cross_dataset_ensemble/model/MobilenetV3large/tf.__operators__.add_25/y", "op": "Const", "attr": {"value": {"tensor": {"dtype": "DT_FLOAT", "tensorShape": {}}}, "dtype": {"type": "DT_FLOAT"}}}, {"name": "StatefulPartitionedCall/cross_dataset_ensemble/model/MobilenetV3large/tf.__operators__.add_27/y", "op": "Const", "attr": {"value": {"tensor": {"dtype": "DT_FLOAT", "tensorShape": {}}}, "dtype": {"type": "DT_FLOAT"}}}, {"name": "StatefulPartitionedCall/cross_dataset_ensemble/model/global_average_pooling2d/Mean/reduction_indices", "op": "Const", "attr": {"value": {"tensor": {"dtype": "DT_INT32", "tensorShape": {"dim": [{"size": "2"}]}}}, "dtype": {"type": "DT_INT32"}}}, {"name": "StatefulPartitionedCall/cross_dataset_ensemble/model/dense/MatMul/ReadVariableOp", "op": "Const", "attr": {"value": {"tensor": {"dtype": "DT_FLOAT", "tensorShape": {"dim": [{"size": "960"}, {"size": "256"}]}}}, "dtype": {"type": "DT_FLOAT"}}}, {"name": "StatefulPartitionedCall/cross_dataset_ensemble/model/dense/BiasAdd/ReadVariableOp", "op": "Const", "attr": {"value": {"tensor": {"dtype": "DT_FLOAT", "tensorShape": {"dim": [{"size": "256"}]}}}, "dtype": {"type": "DT_FLOAT"}}}, {"name": "StatefulPartitionedCall/cross_dataset_ensemble/model/dense_1/MatMul/ReadVariableOp", "op": "Const", "attr": {"value": {"tensor": {"dtype": "DT_FLOAT", "tensorShape": {"dim": [{"size": "256"}, {"size": "128"}]}}}, "dtype": {"type": "DT_FLOAT"}}}, {"name": "StatefulPartitionedCall/cross_dataset_ensemble/model/dense_1/BiasAdd/ReadVariableOp", "op": "Const", "attr": {"value": {"tensor": {"dtype": "DT_FLOAT", "tensorShape": {"dim": [{"size": "128"}]}}}, "dtype": {"type": "DT_FLOAT"}}}, {"name": "StatefulPartitionedCall/cross_dataset_ensemble/model/emotion_output/MatMul/ReadVariableOp", "op": "Const", "attr": {"value": {"tensor": {"dtype": "DT_FLOAT", "tensorShape": {"dim": [{"size": "128"}, {"size": "7"}]}}}, "dtype": {"type": "DT_FLOAT"}}}, {"name": "StatefulPartitionedCall/cross_dataset_ensemble/model/emotion_output/BiasAdd/ReadVariableOp", "op": "Const", "attr": {"value": {"tensor": {"dtype": "DT_FLOAT", "tensorShape": {"dim": [{"size": "7"}]}}}, "dtype": {"type": "DT_FLOAT"}}}, {"name": "input_image", "op": "Placeholder", "attr": {"shape": {"shape": {"dim": [{"size": "-1"}, {"size": "96"}, {"size": "96"}, {"size": "3"}]}}, "dtype": {"type": "DT_FLOAT"}}}, {"name": "StatefulPartitionedCall/cross_dataset_ensemble/sequential/batch_normalization_1/FusedBatchNormV3/Offset", "op": "Const", "attr": {"value": {"tensor": {"dtype": "DT_FLOAT", "tensorShape": {"dim": [{"size": "32"}]}}}, "dtype": {"type": "DT_FLOAT"}}}, {"name": "StatefulPartitionedCall/cross_dataset_ensemble/model/MobilenetV3large/expanded_conv_14/project/Conv2D_weights", "op": "Const", "attr": {"value": {"tensor": {"dtype": "DT_FLOAT", "tensorShape": {"dim": [{"size": "1"}, {"size": "1"}, {"size": "960"}, {"size": "160"}]}}}, "dtype": {"type": "DT_FLOAT"}}}, {"name": "StatefulPartitionedCall/cross_dataset_ensemble/model/MobilenetV3large/expanded_conv_14/project/Conv2D_bn_offset", "op": "Const", "attr": {"value": {"tensor": {"dtype": "DT_FLOAT", "tensorShape": {"dim": [{"size": "160"}]}}}, "dtype": {"type": "DT_FLOAT"}}}, {"name": "StatefulPartitionedCall/cross_dataset_ensemble/model/MobilenetV3large/Conv_1/Conv2D_weights", "op": "Const", "attr": {"value": {"tensor": {"dtype": "DT_FLOAT", "tensorShape": {"dim": [{"size": "1"}, {"size": "1"}, {"size": "160"}, {"size": "960"}]}}}, "dtype": {"type": "DT_FLOAT"}}}, {"name": "StatefulPartitionedCall/cross_dataset_ensemble/model/MobilenetV3large/Conv_1/Conv2D_bn_offset", "op": "Const", "attr": {"value": {"tensor": {"dtype": "DT_FLOAT", "tensorShape": {"dim": [{"size": "960"}]}}}, "dtype": {"type": "DT_FLOAT"}}}, {"name": "StatefulPartitionedCall/cross_dataset_ensemble/model/MobilenetV3large/Conv/Conv2D_weights", "op": "Const", "attr": {"value": {"tensor": {"dtype": "DT_FLOAT", "tensorShape": {"dim": [{"size": "3"}, {"size": "3"}, {"size": "3"}, {"size": "16"}]}}}, "dtype": {"type": "DT_FLOAT"}}}, {"name": "StatefulPartitionedCall/cross_dataset_ensemble/model/MobilenetV3large/Conv/Conv2D_bn_offset", "op": "Const", "attr": {"value": {"tensor": {"dtype": "DT_FLOAT", "tensorShape": {"dim": [{"size": "16"}]}}}, "dtype": {"type": "DT_FLOAT"}}}, {"name": "StatefulPartitionedCall/cross_dataset_ensemble/model/MobilenetV3large/expanded_conv/depthwise/depthwise_weights", "op": "Const", "attr": {"value": {"tensor": {"dtype": "DT_FLOAT", "tensorShape": {"dim": [{"size": "3"}, {"size": "3"}, {"size": "16"}, {"size": "1"}]}}}, "dtype": {"type": "DT_FLOAT"}}}, {"name": "StatefulPartitionedCall/cross_dataset_ensemble/model/MobilenetV3large/expanded_conv/depthwise/depthwise_bn_offset", "op": "Const", "attr": {"value": {"tensor": {"dtype": "DT_FLOAT", "tensorShape": {"dim": [{"size": "16"}]}}}, "dtype": {"type": "DT_FLOAT"}}}, {"name": "StatefulPartitionedCall/cross_dataset_ensemble/model/MobilenetV3large/expanded_conv/project/Conv2D_weights", "op": "Const", "attr": {"value": {"tensor": {"dtype": "DT_FLOAT", "tensorShape": {"dim": [{"size": "1"}, {"size": "1"}, {"size": "16"}, {"size": "16"}]}}}, "dtype": {"type": "DT_FLOAT"}}}, {"name": "StatefulPartitionedCall/cross_dataset_ensemble/model/MobilenetV3large/expanded_conv/project/Conv2D_bn_offset", "op": "Const", "attr": {"value": {"tensor": {"dtype": "DT_FLOAT", "tensorShape": {"dim": [{"size": "16"}]}}}, "dtype": {"type": "DT_FLOAT"}}}, {"name": "StatefulPartitionedCall/cross_dataset_ensemble/model/MobilenetV3large/expanded_conv_1/expand/Conv2D_weights", "op": "Const", "attr": {"value": {"tensor": {"dtype": "DT_FLOAT", "tensorShape": {"dim": [{"size": "1"}, {"size": "1"}, {"size": "16"}, {"size": "64"}]}}}, "dtype": {"type": "DT_FLOAT"}}}, {"name": "StatefulPartitionedCall/cross_dataset_ensemble/model/MobilenetV3large/expanded_conv_1/expand/Conv2D_bn_offset", "op": "Const", "attr": {"value": {"tensor": {"dtype": "DT_FLOAT", "tensorShape": {"dim": [{"size": "64"}]}}}, "dtype": {"type": "DT_FLOAT"}}}, {"name": "StatefulPartitionedCall/cross_dataset_ensemble/model/MobilenetV3large/expanded_conv_1/depthwise/depthwise_weights", "op": "Const", "attr": {"value": {"tensor": {"dtype": "DT_FLOAT", "tensorShape": {"dim": [{"size": "3"}, {"size": "3"}, {"size": "64"}, {"size": "1"}]}}}, "dtype": {"type": "DT_FLOAT"}}}, {"name": "StatefulPartitionedCall/cross_dataset_ensemble/model/MobilenetV3large/expanded_conv_1/depthwise/depthwise_bn_offset", "op": "Const", "attr": {"value": {"tensor": {"dtype": "DT_FLOAT", "tensorShape": {"dim": [{"size": "64"}]}}}, "dtype": {"type": "DT_FLOAT"}}}, {"name": "StatefulPartitionedCall/cross_dataset_ensemble/model/MobilenetV3large/expanded_conv_1/project/Conv2D_weights", "op": "Const", "attr": {"value": {"tensor": {"dtype": "DT_FLOAT", "tensorShape": {"dim": [{"size": "1"}, {"size": "1"}, {"size": "64"}, {"size": "24"}]}}}, "dtype": {"type": "DT_FLOAT"}}}, {"name": "StatefulPartitionedCall/cross_dataset_ensemble/sequential/batch_normalization/FusedBatchNormV3/Scaled", "op": "Const", "attr": {"value": {"tensor": {"dtype": "DT_FLOAT", "tensorShape": {"dim": [{"size": "32"}]}}}, "dtype": {"type": "DT_FLOAT"}}}, {"name": "StatefulPartitionedCall/cross_dataset_ensemble/model/MobilenetV3large/expanded_conv_1/project/Conv2D_bn_offset", "op": "Const", "attr": {"value": {"tensor": {"dtype": "DT_FLOAT", "tensorShape": {"dim": [{"size": "24"}]}}}, "dtype": {"type": "DT_FLOAT"}}}, {"name": "StatefulPartitionedCall/cross_dataset_ensemble/model/MobilenetV3large/expanded_conv_2/expand/Conv2D_weights", "op": "Const", "attr": {"value": {"tensor": {"dtype": "DT_FLOAT", "tensorShape": {"dim": [{"size": "1"}, {"size": "1"}, {"size": "24"}, {"size": "72"}]}}}, "dtype": {"type": "DT_FLOAT"}}}, {"name": "StatefulPartitionedCall/cross_dataset_ensemble/model/MobilenetV3large/expanded_conv_2/expand/Conv2D_bn_offset", "op": "Const", "attr": {"value": {"tensor": {"dtype": "DT_FLOAT", "tensorShape": {"dim": [{"size": "72"}]}}}, "dtype": {"type": "DT_FLOAT"}}}, {"name": "StatefulPartitionedCall/cross_dataset_ensemble/model/MobilenetV3large/expanded_conv_2/depthwise/depthwise_weights", "op": "Const", "attr": {"value": {"tensor": {"dtype": "DT_FLOAT", "tensorShape": {"dim": [{"size": "3"}, {"size": "3"}, {"size": "72"}, {"size": "1"}]}}}, "dtype": {"type": "DT_FLOAT"}}}, {"name": "StatefulPartitionedCall/cross_dataset_ensemble/model/MobilenetV3large/expanded_conv_2/depthwise/depthwise_bn_offset", "op": "Const", "attr": {"value": {"tensor": {"dtype": "DT_FLOAT", "tensorShape": {"dim": [{"size": "72"}]}}}, "dtype": {"type": "DT_FLOAT"}}}, {"name": "StatefulPartitionedCall/cross_dataset_ensemble/model/MobilenetV3large/expanded_conv_2/project/Conv2D_weights", "op": "Const", "attr": {"value": {"tensor": {"dtype": "DT_FLOAT", "tensorShape": {"dim": [{"size": "1"}, {"size": "1"}, {"size": "72"}, {"size": "24"}]}}}, "dtype": {"type": "DT_FLOAT"}}}, {"name": "StatefulPartitionedCall/cross_dataset_ensemble/model/MobilenetV3large/expanded_conv_2/project/Conv2D_bn_offset", "op": "Const", "attr": {"value": {"tensor": {"dtype": "DT_FLOAT", "tensorShape": {"dim": [{"size": "24"}]}}}, "dtype": {"type": "DT_FLOAT"}}}, {"name": "StatefulPartitionedCall/cross_dataset_ensemble/model/MobilenetV3large/expanded_conv_3/expand/Conv2D_weights", "op": "Const", "attr": {"value": {"tensor": {"dtype": "DT_FLOAT", "tensorShape": {"dim": [{"size": "1"}, {"size": "1"}, {"size": "24"}, {"size": "72"}]}}}, "dtype": {"type": "DT_FLOAT"}}}, {"name": "StatefulPartitionedCall/cross_dataset_ensemble/model/MobilenetV3large/expanded_conv_3/expand/Conv2D_bn_offset", "op": "Const", "attr": {"value": {"tensor": {"dtype": "DT_FLOAT", "tensorShape": {"dim": [{"size": "72"}]}}}, "dtype": {"type": "DT_FLOAT"}}}, {"name": "StatefulPartitionedCall/cross_dataset_ensemble/sequential/batch_normalization/FusedBatchNormV3/Offset", "op": "Const", "attr": {"value": {"tensor": {"dtype": "DT_FLOAT", "tensorShape": {"dim": [{"size": "32"}]}}}, "dtype": {"type": "DT_FLOAT"}}}, {"name": "StatefulPartitionedCall/cross_dataset_ensemble/model/MobilenetV3large/expanded_conv_3/depthwise/depthwise_weights", "op": "Const", "attr": {"value": {"tensor": {"dtype": "DT_FLOAT", "tensorShape": {"dim": [{"size": "5"}, {"size": "5"}, {"size": "72"}, {"size": "1"}]}}}, "dtype": {"type": "DT_FLOAT"}}}, {"name": "StatefulPartitionedCall/cross_dataset_ensemble/model/MobilenetV3large/expanded_conv_3/depthwise/depthwise_bn_offset", "op": "Const", "attr": {"value": {"tensor": {"dtype": "DT_FLOAT", "tensorShape": {"dim": [{"size": "72"}]}}}, "dtype": {"type": "DT_FLOAT"}}}, {"name": "StatefulPartitionedCall/cross_dataset_ensemble/model/MobilenetV3large/expanded_conv_3/project/Conv2D_weights", "op": "Const", "attr": {"value": {"tensor": {"dtype": "DT_FLOAT", "tensorShape": {"dim": [{"size": "1"}, {"size": "1"}, {"size": "72"}, {"size": "40"}]}}}, "dtype": {"type": "DT_FLOAT"}}}, {"name": "StatefulPartitionedCall/cross_dataset_ensemble/model/MobilenetV3large/expanded_conv_3/project/Conv2D_bn_offset", "op": "Const", "attr": {"value": {"tensor": {"dtype": "DT_FLOAT", "tensorShape": {"dim": [{"size": "40"}]}}}, "dtype": {"type": "DT_FLOAT"}}}, {"name": "StatefulPartitionedCall/cross_dataset_ensemble/model/MobilenetV3large/expanded_conv_4/expand/Conv2D_weights", "op": "Const", "attr": {"value": {"tensor": {"dtype": "DT_FLOAT", "tensorShape": {"dim": [{"size": "1"}, {"size": "1"}, {"size": "40"}, {"size": "120"}]}}}, "dtype": {"type": "DT_FLOAT"}}}, {"name": "StatefulPartitionedCall/cross_dataset_ensemble/model/MobilenetV3large/expanded_conv_4/expand/Conv2D_bn_offset", "op": "Const", "attr": {"value": {"tensor": {"dtype": "DT_FLOAT", "tensorShape": {"dim": [{"size": "120"}]}}}, "dtype": {"type": "DT_FLOAT"}}}, {"name": "StatefulPartitionedCall/cross_dataset_ensemble/model/MobilenetV3large/expanded_conv_4/depthwise/depthwise_weights", "op": "Const", "attr": {"value": {"tensor": {"dtype": "DT_FLOAT", "tensorShape": {"dim": [{"size": "5"}, {"size": "5"}, {"size": "120"}, {"size": "1"}]}}}, "dtype": {"type": "DT_FLOAT"}}}, {"name": "StatefulPartitionedCall/cross_dataset_ensemble/model/MobilenetV3large/expanded_conv_4/depthwise/depthwise_bn_offset", "op": "Const", "attr": {"value": {"tensor": {"dtype": "DT_FLOAT", "tensorShape": {"dim": [{"size": "120"}]}}}, "dtype": {"type": "DT_FLOAT"}}}, {"name": "StatefulPartitionedCall/cross_dataset_ensemble/model/MobilenetV3large/expanded_conv_4/project/Conv2D_weights", "op": "Const", "attr": {"value": {"tensor": {"dtype": "DT_FLOAT", "tensorShape": {"dim": [{"size": "1"}, {"size": "1"}, {"size": "120"}, {"size": "40"}]}}}, "dtype": {"type": "DT_FLOAT"}}}, {"name": "StatefulPartitionedCall/cross_dataset_ensemble/sequential/batch_normalization_6/FusedBatchNormV3/Scaled", "op": "Const", "attr": {"value": {"tensor": {"dtype": "DT_FLOAT", "tensorShape": {"dim": [{"size": "256"}]}}}, "dtype": {"type": "DT_FLOAT"}}}, {"name": "StatefulPartitionedCall/cross_dataset_ensemble/model/MobilenetV3large/expanded_conv_4/project/Conv2D_bn_offset", "op": "Const", "attr": {"value": {"tensor": {"dtype": "DT_FLOAT", "tensorShape": {"dim": [{"size": "40"}]}}}, "dtype": {"type": "DT_FLOAT"}}}, {"name": "StatefulPartitionedCall/cross_dataset_ensemble/model/MobilenetV3large/expanded_conv_5/expand/Conv2D_weights", "op": "Const", "attr": {"value": {"tensor": {"dtype": "DT_FLOAT", "tensorShape": {"dim": [{"size": "1"}, {"size": "1"}, {"size": "40"}, {"size": "120"}]}}}, "dtype": {"type": "DT_FLOAT"}}}, {"name": "StatefulPartitionedCall/cross_dataset_ensemble/model/MobilenetV3large/expanded_conv_5/expand/Conv2D_bn_offset", "op": "Const", "attr": {"value": {"tensor": {"dtype": "DT_FLOAT", "tensorShape": {"dim": [{"size": "120"}]}}}, "dtype": {"type": "DT_FLOAT"}}}, {"name": "StatefulPartitionedCall/cross_dataset_ensemble/model/MobilenetV3large/expanded_conv_5/depthwise/depthwise_weights", "op": "Const", "attr": {"value": {"tensor": {"dtype": "DT_FLOAT", "tensorShape": {"dim": [{"size": "5"}, {"size": "5"}, {"size": "120"}, {"size": "1"}]}}}, "dtype": {"type": "DT_FLOAT"}}}, {"name": "StatefulPartitionedCall/cross_dataset_ensemble/model/MobilenetV3large/expanded_conv_5/depthwise/depthwise_bn_offset", "op": "Const", "attr": {"value": {"tensor": {"dtype": "DT_FLOAT", "tensorShape": {"dim": [{"size": "120"}]}}}, "dtype": {"type": "DT_FLOAT"}}}, {"name": "StatefulPartitionedCall/cross_dataset_ensemble/sequential/batch_normalization_6/FusedBatchNormV3/Offset", "op": "Const", "attr": {"value": {"tensor": {"dtype": "DT_FLOAT", "tensorShape": {"dim": [{"size": "256"}]}}}, "dtype": {"type": "DT_FLOAT"}}}, {"name": "StatefulPartitionedCall/cross_dataset_ensemble/model/MobilenetV3large/expanded_conv_5/project/Conv2D_weights", "op": "Const", "attr": {"value": {"tensor": {"dtype": "DT_FLOAT", "tensorShape": {"dim": [{"size": "1"}, {"size": "1"}, {"size": "120"}, {"size": "40"}]}}}, "dtype": {"type": "DT_FLOAT"}}}, {"name": "StatefulPartitionedCall/cross_dataset_ensemble/model/MobilenetV3large/expanded_conv_5/project/Conv2D_bn_offset", "op": "Const", "attr": {"value": {"tensor": {"dtype": "DT_FLOAT", "tensorShape": {"dim": [{"size": "40"}]}}}, "dtype": {"type": "DT_FLOAT"}}}, {"name": "StatefulPartitionedCall/cross_dataset_ensemble/model/MobilenetV3large/expanded_conv_6/expand/Conv2D_weights", "op": "Const", "attr": {"value": {"tensor": {"dtype": "DT_FLOAT", "tensorShape": {"dim": [{"size": "1"}, {"size": "1"}, {"size": "40"}, {"size": "240"}]}}}, "dtype": {"type": "DT_FLOAT"}}}, {"name": "StatefulPartitionedCall/cross_dataset_ensemble/sequential/batch_normalization_5/FusedBatchNormV3/Scaled", "op": "Const", "attr": {"value": {"tensor": {"dtype": "DT_FLOAT", "tensorShape": {"dim": [{"size": "128"}]}}}, "dtype": {"type": "DT_FLOAT"}}}, {"name": "StatefulPartitionedCall/cross_dataset_ensemble/model/MobilenetV3large/expanded_conv_6/expand/Conv2D_bn_offset", "op": "Const", "attr": {"value": {"tensor": {"dtype": "DT_FLOAT", "tensorShape": {"dim": [{"size": "240"}]}}}, "dtype": {"type": "DT_FLOAT"}}}, {"name": "StatefulPartitionedCall/cross_dataset_ensemble/model/MobilenetV3large/expanded_conv_6/depthwise/depthwise_weights", "op": "Const", "attr": {"value": {"tensor": {"dtype": "DT_FLOAT", "tensorShape": {"dim": [{"size": "3"}, {"size": "3"}, {"size": "240"}, {"size": "1"}]}}}, "dtype": {"type": "DT_FLOAT"}}}, {"name": "StatefulPartitionedCall/cross_dataset_ensemble/model/MobilenetV3large/expanded_conv_6/depthwise/depthwise_bn_offset", "op": "Const", "attr": {"value": {"tensor": {"dtype": "DT_FLOAT", "tensorShape": {"dim": [{"size": "240"}]}}}, "dtype": {"type": "DT_FLOAT"}}}, {"name": "StatefulPartitionedCall/cross_dataset_ensemble/model/MobilenetV3large/expanded_conv_6/project/Conv2D_weights", "op": "Const", "attr": {"value": {"tensor": {"dtype": "DT_FLOAT", "tensorShape": {"dim": [{"size": "1"}, {"size": "1"}, {"size": "240"}, {"size": "80"}]}}}, "dtype": {"type": "DT_FLOAT"}}}, {"name": "StatefulPartitionedCall/cross_dataset_ensemble/model/MobilenetV3large/expanded_conv_6/project/Conv2D_bn_offset", "op": "Const", "attr": {"value": {"tensor": {"dtype": "DT_FLOAT", "tensorShape": {"dim": [{"size": "80"}]}}}, "dtype": {"type": "DT_FLOAT"}}}, {"name": "StatefulPartitionedCall/cross_dataset_ensemble/model/MobilenetV3large/expanded_conv_7/expand/Conv2D_weights", "op": "Const", "attr": {"value": {"tensor": {"dtype": "DT_FLOAT", "tensorShape": {"dim": [{"size": "1"}, {"size": "1"}, {"size": "80"}, {"size": "200"}]}}}, "dtype": {"type": "DT_FLOAT"}}}, {"name": "StatefulPartitionedCall/cross_dataset_ensemble/model/MobilenetV3large/expanded_conv_7/expand/Conv2D_bn_offset", "op": "Const", "attr": {"value": {"tensor": {"dtype": "DT_FLOAT", "tensorShape": {"dim": [{"size": "200"}]}}}, "dtype": {"type": "DT_FLOAT"}}}, {"name": "StatefulPartitionedCall/cross_dataset_ensemble/model/MobilenetV3large/expanded_conv_7/depthwise/depthwise_weights", "op": "Const", "attr": {"value": {"tensor": {"dtype": "DT_FLOAT", "tensorShape": {"dim": [{"size": "3"}, {"size": "3"}, {"size": "200"}, {"size": "1"}]}}}, "dtype": {"type": "DT_FLOAT"}}}, {"name": "StatefulPartitionedCall/cross_dataset_ensemble/model/MobilenetV3large/expanded_conv_7/depthwise/depthwise_bn_offset", "op": "Const", "attr": {"value": {"tensor": {"dtype": "DT_FLOAT", "tensorShape": {"dim": [{"size": "200"}]}}}, "dtype": {"type": "DT_FLOAT"}}}, {"name": "StatefulPartitionedCall/cross_dataset_ensemble/model/MobilenetV3large/expanded_conv_7/project/Conv2D_weights", "op": "Const", "attr": {"value": {"tensor": {"dtype": "DT_FLOAT", "tensorShape": {"dim": [{"size": "1"}, {"size": "1"}, {"size": "200"}, {"size": "80"}]}}}, "dtype": {"type": "DT_FLOAT"}}}, {"name": "StatefulPartitionedCall/cross_dataset_ensemble/sequential/batch_normalization_5/FusedBatchNormV3/Offset", "op": "Const", "attr": {"value": {"tensor": {"dtype": "DT_FLOAT", "tensorShape": {"dim": [{"size": "128"}]}}}, "dtype": {"type": "DT_FLOAT"}}}, {"name": "StatefulPartitionedCall/cross_dataset_ensemble/model/MobilenetV3large/expanded_conv_7/project/Conv2D_bn_offset", "op": "Const", "attr": {"value": {"tensor": {"dtype": "DT_FLOAT", "tensorShape": {"dim": [{"size": "80"}]}}}, "dtype": {"type": "DT_FLOAT"}}}, {"name": "StatefulPartitionedCall/cross_dataset_ensemble/model/MobilenetV3large/expanded_conv_8/expand/Conv2D_weights", "op": "Const", "attr": {"value": {"tensor": {"dtype": "DT_FLOAT", "tensorShape": {"dim": [{"size": "1"}, {"size": "1"}, {"size": "80"}, {"size": "184"}]}}}, "dtype": {"type": "DT_FLOAT"}}}, {"name": "StatefulPartitionedCall/cross_dataset_ensemble/model/MobilenetV3large/expanded_conv_8/expand/Conv2D_bn_offset", "op": "Const", "attr": {"value": {"tensor": {"dtype": "DT_FLOAT", "tensorShape": {"dim": [{"size": "184"}]}}}, "dtype": {"type": "DT_FLOAT"}}}, {"name": "StatefulPartitionedCall/cross_dataset_ensemble/model/MobilenetV3large/expanded_conv_8/depthwise/depthwise_weights", "op": "Const", "attr": {"value": {"tensor": {"dtype": "DT_FLOAT", "tensorShape": {"dim": [{"size": "3"}, {"size": "3"}, {"size": "184"}, {"size": "1"}]}}}, "dtype": {"type": "DT_FLOAT"}}}, {"name": "StatefulPartitionedCall/cross_dataset_ensemble/model/MobilenetV3large/expanded_conv_8/depthwise/depthwise_bn_offset", "op": "Const", "attr": {"value": {"tensor": {"dtype": "DT_FLOAT", "tensorShape": {"dim": [{"size": "184"}]}}}, "dtype": {"type": "DT_FLOAT"}}}, {"name": "StatefulPartitionedCall/cross_dataset_ensemble/model/MobilenetV3large/expanded_conv_8/project/Conv2D_weights", "op": "Const", "attr": {"value": {"tensor": {"dtype": "DT_FLOAT", "tensorShape": {"dim": [{"size": "1"}, {"size": "1"}, {"size": "184"}, {"size": "80"}]}}}, "dtype": {"type": "DT_FLOAT"}}}, {"name": "StatefulPartitionedCall/cross_dataset_ensemble/model/MobilenetV3large/expanded_conv_8/project/Conv2D_bn_offset", "op": "Const", "attr": {"value": {"tensor": {"dtype": "DT_FLOAT", "tensorShape": {"dim": [{"size": "80"}]}}}, "dtype": {"type": "DT_FLOAT"}}}, {"name": "StatefulPartitionedCall/cross_dataset_ensemble/model/MobilenetV3large/expanded_conv_9/expand/Conv2D_weights", "op": "Const", "attr": {"value": {"tensor": {"dtype": "DT_FLOAT", "tensorShape": {"dim": [{"size": "1"}, {"size": "1"}, {"size": "80"}, {"size": "184"}]}}}, "dtype": {"type": "DT_FLOAT"}}}, {"name": "StatefulPartitionedCall/cross_dataset_ensemble/model/MobilenetV3large/expanded_conv_9/expand/Conv2D_bn_offset", "op": "Const", "attr": {"value": {"tensor": {"dtype": "DT_FLOAT", "tensorShape": {"dim": [{"size": "184"}]}}}, "dtype": {"type": "DT_FLOAT"}}}, {"name": "StatefulPartitionedCall/cross_dataset_ensemble/model/MobilenetV3large/expanded_conv_9/depthwise/depthwise_weights", "op": "Const", "attr": {"value": {"tensor": {"dtype": "DT_FLOAT", "tensorShape": {"dim": [{"size": "3"}, {"size": "3"}, {"size": "184"}, {"size": "1"}]}}}, "dtype": {"type": "DT_FLOAT"}}}, {"name": "StatefulPartitionedCall/cross_dataset_ensemble/model/MobilenetV3large/expanded_conv_9/depthwise/depthwise_bn_offset", "op": "Const", "attr": {"value": {"tensor": {"dtype": "DT_FLOAT", "tensorShape": {"dim": [{"size": "184"}]}}}, "dtype": {"type": "DT_FLOAT"}}}, {"name": "StatefulPartitionedCall/cross_dataset_ensemble/model/MobilenetV3large/expanded_conv_9/project/Conv2D_weights", "op": "Const", "attr": {"value": {"tensor": {"dtype": "DT_FLOAT", "tensorShape": {"dim": [{"size": "1"}, {"size": "1"}, {"size": "184"}, {"size": "80"}]}}}, "dtype": {"type": "DT_FLOAT"}}}, {"name": "StatefulPartitionedCall/cross_dataset_ensemble/sequential/batch_normalization_4/FusedBatchNormV3/Scaled", "op": "Const", "attr": {"value": {"tensor": {"dtype": "DT_FLOAT", "tensorShape": {"dim": [{"size": "128"}]}}}, "dtype": {"type": "DT_FLOAT"}}}, {"name": "StatefulPartitionedCall/cross_dataset_ensemble/model/MobilenetV3large/expanded_conv_9/project/Conv2D_bn_offset", "op": "Const", "attr": {"value": {"tensor": {"dtype": "DT_FLOAT", "tensorShape": {"dim": [{"size": "80"}]}}}, "dtype": {"type": "DT_FLOAT"}}}, {"name": "StatefulPartitionedCall/cross_dataset_ensemble/model/MobilenetV3large/expanded_conv_10/expand/Conv2D_weights", "op": "Const", "attr": {"value": {"tensor": {"dtype": "DT_FLOAT", "tensorShape": {"dim": [{"size": "1"}, {"size": "1"}, {"size": "80"}, {"size": "480"}]}}}, "dtype": {"type": "DT_FLOAT"}}}, {"name": "StatefulPartitionedCall/cross_dataset_ensemble/model/MobilenetV3large/expanded_conv_10/expand/Conv2D_bn_offset", "op": "Const", "attr": {"value": {"tensor": {"dtype": "DT_FLOAT", "tensorShape": {"dim": [{"size": "480"}]}}}, "dtype": {"type": "DT_FLOAT"}}}, {"name": "StatefulPartitionedCall/cross_dataset_ensemble/model/MobilenetV3large/expanded_conv_10/depthwise/depthwise_weights", "op": "Const", "attr": {"value": {"tensor": {"dtype": "DT_FLOAT", "tensorShape": {"dim": [{"size": "3"}, {"size": "3"}, {"size": "480"}, {"size": "1"}]}}}, "dtype": {"type": "DT_FLOAT"}}}, {"name": "StatefulPartitionedCall/cross_dataset_ensemble/model/MobilenetV3large/expanded_conv_10/depthwise/depthwise_bn_offset", "op": "Const", "attr": {"value": {"tensor": {"dtype": "DT_FLOAT", "tensorShape": {"dim": [{"size": "480"}]}}}, "dtype": {"type": "DT_FLOAT"}}}, {"name": "StatefulPartitionedCall/cross_dataset_ensemble/sequential/batch_normalization_4/FusedBatchNormV3/Offset", "op": "Const", "attr": {"value": {"tensor": {"dtype": "DT_FLOAT", "tensorShape": {"dim": [{"size": "128"}]}}}, "dtype": {"type": "DT_FLOAT"}}}, {"name": "StatefulPartitionedCall/cross_dataset_ensemble/model/MobilenetV3large/expanded_conv_10/project/Conv2D_weights", "op": "Const", "attr": {"value": {"tensor": {"dtype": "DT_FLOAT", "tensorShape": {"dim": [{"size": "1"}, {"size": "1"}, {"size": "480"}, {"size": "112"}]}}}, "dtype": {"type": "DT_FLOAT"}}}, {"name": "StatefulPartitionedCall/cross_dataset_ensemble/model/MobilenetV3large/expanded_conv_10/project/Conv2D_bn_offset", "op": "Const", "attr": {"value": {"tensor": {"dtype": "DT_FLOAT", "tensorShape": {"dim": [{"size": "112"}]}}}, "dtype": {"type": "DT_FLOAT"}}}, {"name": "StatefulPartitionedCall/cross_dataset_ensemble/model/MobilenetV3large/expanded_conv_11/expand/Conv2D_weights", "op": "Const", "attr": {"value": {"tensor": {"dtype": "DT_FLOAT", "tensorShape": {"dim": [{"size": "1"}, {"size": "1"}, {"size": "112"}, {"size": "672"}]}}}, "dtype": {"type": "DT_FLOAT"}}}, {"name": "StatefulPartitionedCall/cross_dataset_ensemble/model/MobilenetV3large/expanded_conv_11/expand/Conv2D_bn_offset", "op": "Const", "attr": {"value": {"tensor": {"dtype": "DT_FLOAT", "tensorShape": {"dim": [{"size": "672"}]}}}, "dtype": {"type": "DT_FLOAT"}}}, {"name": "StatefulPartitionedCall/cross_dataset_ensemble/model/MobilenetV3large/expanded_conv_11/depthwise/depthwise_weights", "op": "Const", "attr": {"value": {"tensor": {"dtype": "DT_FLOAT", "tensorShape": {"dim": [{"size": "3"}, {"size": "3"}, {"size": "672"}, {"size": "1"}]}}}, "dtype": {"type": "DT_FLOAT"}}}, {"name": "StatefulPartitionedCall/cross_dataset_ensemble/model/MobilenetV3large/expanded_conv_11/depthwise/depthwise_bn_offset", "op": "Const", "attr": {"value": {"tensor": {"dtype": "DT_FLOAT", "tensorShape": {"dim": [{"size": "672"}]}}}, "dtype": {"type": "DT_FLOAT"}}}, {"name": "StatefulPartitionedCall/cross_dataset_ensemble/sequential/batch_normalization_3/FusedBatchNormV3/Scaled", "op": "Const", "attr": {"value": {"tensor": {"dtype": "DT_FLOAT", "tensorShape": {"dim": [{"size": "64"}]}}}, "dtype": {"type": "DT_FLOAT"}}}, {"name": "StatefulPartitionedCall/cross_dataset_ensemble/model/MobilenetV3large/expanded_conv_11/project/Conv2D_weights", "op": "Const", "attr": {"value": {"tensor": {"dtype": "DT_FLOAT", "tensorShape": {"dim": [{"size": "1"}, {"size": "1"}, {"size": "672"}, {"size": "112"}]}}}, "dtype": {"type": "DT_FLOAT"}}}, {"name": "StatefulPartitionedCall/cross_dataset_ensemble/sequential/batch_normalization_3/FusedBatchNormV3/Offset", "op": "Const", "attr": {"value": {"tensor": {"dtype": "DT_FLOAT", "tensorShape": {"dim": [{"size": "64"}]}}}, "dtype": {"type": "DT_FLOAT"}}}, {"name": "StatefulPartitionedCall/cross_dataset_ensemble/model/MobilenetV3large/expanded_conv_11/project/Conv2D_bn_offset", "op": "Const", "attr": {"value": {"tensor": {"dtype": "DT_FLOAT", "tensorShape": {"dim": [{"size": "112"}]}}}, "dtype": {"type": "DT_FLOAT"}}}, {"name": "StatefulPartitionedCall/cross_dataset_ensemble/model/MobilenetV3large/expanded_conv_12/expand/Conv2D_weights", "op": "Const", "attr": {"value": {"tensor": {"dtype": "DT_FLOAT", "tensorShape": {"dim": [{"size": "1"}, {"size": "1"}, {"size": "112"}, {"size": "672"}]}}}, "dtype": {"type": "DT_FLOAT"}}}, {"name": "StatefulPartitionedCall/cross_dataset_ensemble/model/MobilenetV3large/expanded_conv_12/expand/Conv2D_bn_offset", "op": "Const", "attr": {"value": {"tensor": {"dtype": "DT_FLOAT", "tensorShape": {"dim": [{"size": "672"}]}}}, "dtype": {"type": "DT_FLOAT"}}}, {"name": "StatefulPartitionedCall/cross_dataset_ensemble/model/MobilenetV3large/expanded_conv_12/depthwise/depthwise_weights", "op": "Const", "attr": {"value": {"tensor": {"dtype": "DT_FLOAT", "tensorShape": {"dim": [{"size": "5"}, {"size": "5"}, {"size": "672"}, {"size": "1"}]}}}, "dtype": {"type": "DT_FLOAT"}}}, {"name": "StatefulPartitionedCall/cross_dataset_ensemble/model/MobilenetV3large/expanded_conv_12/depthwise/depthwise_bn_offset", "op": "Const", "attr": {"value": {"tensor": {"dtype": "DT_FLOAT", "tensorShape": {"dim": [{"size": "672"}]}}}, "dtype": {"type": "DT_FLOAT"}}}, {"name": "StatefulPartitionedCall/cross_dataset_ensemble/sequential/batch_normalization_2/FusedBatchNormV3/Scaled", "op": "Const", "attr": {"value": {"tensor": {"dtype": "DT_FLOAT", "tensorShape": {"dim": [{"size": "64"}]}}}, "dtype": {"type": "DT_FLOAT"}}}, {"name": "StatefulPartitionedCall/cross_dataset_ensemble/model/MobilenetV3large/expanded_conv_12/project/Conv2D_weights", "op": "Const", "attr": {"value": {"tensor": {"dtype": "DT_FLOAT", "tensorShape": {"dim": [{"size": "1"}, {"size": "1"}, {"size": "672"}, {"size": "160"}]}}}, "dtype": {"type": "DT_FLOAT"}}}, {"name": "StatefulPartitionedCall/cross_dataset_ensemble/model/MobilenetV3large/expanded_conv_12/project/Conv2D_bn_offset", "op": "Const", "attr": {"value": {"tensor": {"dtype": "DT_FLOAT", "tensorShape": {"dim": [{"size": "160"}]}}}, "dtype": {"type": "DT_FLOAT"}}}, {"name": "StatefulPartitionedCall/cross_dataset_ensemble/model/MobilenetV3large/expanded_conv_13/expand/Conv2D_weights", "op": "Const", "attr": {"value": {"tensor": {"dtype": "DT_FLOAT", "tensorShape": {"dim": [{"size": "1"}, {"size": "1"}, {"size": "160"}, {"size": "960"}]}}}, "dtype": {"type": "DT_FLOAT"}}}, {"name": "StatefulPartitionedCall/cross_dataset_ensemble/model/MobilenetV3large/expanded_conv_13/expand/Conv2D_bn_offset", "op": "Const", "attr": {"value": {"tensor": {"dtype": "DT_FLOAT", "tensorShape": {"dim": [{"size": "960"}]}}}, "dtype": {"type": "DT_FLOAT"}}}, {"name": "StatefulPartitionedCall/cross_dataset_ensemble/model/MobilenetV3large/expanded_conv_13/depthwise/depthwise_weights", "op": "Const", "attr": {"value": {"tensor": {"dtype": "DT_FLOAT", "tensorShape": {"dim": [{"size": "5"}, {"size": "5"}, {"size": "960"}, {"size": "1"}]}}}, "dtype": {"type": "DT_FLOAT"}}}, {"name": "StatefulPartitionedCall/cross_dataset_ensemble/model/MobilenetV3large/expanded_conv_13/depthwise/depthwise_bn_offset", "op": "Const", "attr": {"value": {"tensor": {"dtype": "DT_FLOAT", "tensorShape": {"dim": [{"size": "960"}]}}}, "dtype": {"type": "DT_FLOAT"}}}, {"name": "StatefulPartitionedCall/cross_dataset_ensemble/sequential/batch_normalization_2/FusedBatchNormV3/Offset", "op": "Const", "attr": {"value": {"tensor": {"dtype": "DT_FLOAT", "tensorShape": {"dim": [{"size": "64"}]}}}, "dtype": {"type": "DT_FLOAT"}}}, {"name": "StatefulPartitionedCall/cross_dataset_ensemble/model/MobilenetV3large/expanded_conv_13/project/Conv2D_weights", "op": "Const", "attr": {"value": {"tensor": {"dtype": "DT_FLOAT", "tensorShape": {"dim": [{"size": "1"}, {"size": "1"}, {"size": "960"}, {"size": "160"}]}}}, "dtype": {"type": "DT_FLOAT"}}}, {"name": "StatefulPartitionedCall/cross_dataset_ensemble/model/MobilenetV3large/expanded_conv_13/project/Conv2D_bn_offset", "op": "Const", "attr": {"value": {"tensor": {"dtype": "DT_FLOAT", "tensorShape": {"dim": [{"size": "160"}]}}}, "dtype": {"type": "DT_FLOAT"}}}, {"name": "StatefulPartitionedCall/cross_dataset_ensemble/model/MobilenetV3large/expanded_conv_14/expand/Conv2D_weights", "op": "Const", "attr": {"value": {"tensor": {"dtype": "DT_FLOAT", "tensorShape": {"dim": [{"size": "1"}, {"size": "1"}, {"size": "160"}, {"size": "960"}]}}}, "dtype": {"type": "DT_FLOAT"}}}, {"name": "StatefulPartitionedCall/cross_dataset_ensemble/sequential/batch_normalization_1/FusedBatchNormV3/Scaled", "op": "Const", "attr": {"value": {"tensor": {"dtype": "DT_FLOAT", "tensorShape": {"dim": [{"size": "32"}]}}}, "dtype": {"type": "DT_FLOAT"}}}, {"name": "StatefulPartitionedCall/cross_dataset_ensemble/model/MobilenetV3large/expanded_conv_14/expand/Conv2D_bn_offset", "op": "Const", "attr": {"value": {"tensor": {"dtype": "DT_FLOAT", "tensorShape": {"dim": [{"size": "960"}]}}}, "dtype": {"type": "DT_FLOAT"}}}, {"name": "StatefulPartitionedCall/cross_dataset_ensemble/model/MobilenetV3large/expanded_conv_14/depthwise/depthwise_weights", "op": "Const", "attr": {"value": {"tensor": {"dtype": "DT_FLOAT", "tensorShape": {"dim": [{"size": "5"}, {"size": "5"}, {"size": "960"}, {"size": "1"}]}}}, "dtype": {"type": "DT_FLOAT"}}}, {"name": "StatefulPartitionedCall/cross_dataset_ensemble/model/MobilenetV3large/expanded_conv_14/depthwise/depthwise_bn_offset", "op": "Const", "attr": {"value": {"tensor": {"dtype": "DT_FLOAT", "tensorShape": {"dim": [{"size": "960"}]}}}, "dtype": {"type": "DT_FLOAT"}}}, {"name": "StatefulPartitionedCall/cross_dataset_ensemble/tf.image.rgb_to_grayscale/rgb_to_grayscale/Tensordot/Shape", "op": "Shape", "input": ["input_image"], "attr": {"T": {"type": "DT_FLOAT"}, "out_type": {"type": "DT_INT32"}}, "experimentalType": {"typeId": "TFT_PRODUCT", "args": [{"typeId": "TFT_SHAPE_TENSOR", "args": [{"typeId": "TFT_INT32"}]}]}}, {"name": "StatefulPartitionedCall/cross_dataset_ensemble/model/MobilenetV3large/rescaling/mul", "op": "Mul", "input": ["input_image", "StatefulPartitionedCall/cross_dataset_ensemble/model/MobilenetV3large/rescaling/Cast/x"], "attr": {"T": {"type": "DT_FLOAT"}}}, {"name": "StatefulPartitionedCall/cross_dataset_ensemble/tf.image.rgb_to_grayscale/rgb_to_grayscale/Tensordot/GatherV2_1", "op": "GatherV2", "input": ["StatefulPartitionedCall/cross_dataset_ensemble/tf.image.rgb_to_grayscale/rgb_to_grayscale/Tensordot/Shape", "StatefulPartitionedCall/cross_dataset_ensemble/tf.image.rgb_to_grayscale/rgb_to_grayscale/Tensordot/axes", "StatefulPartitionedCall/cross_dataset_ensemble/tf.image.rgb_to_grayscale/rgb_to_grayscale/Tensordot/GatherV2_1/axis"], "attr": {"Taxis": {"type": "DT_INT32"}, "Tparams": {"type": "DT_INT32"}, "Tindices": {"type": "DT_INT32"}, "batch_dims": {"i": "0"}}}, {"name": "StatefulPartitionedCall/cross_dataset_ensemble/tf.image.rgb_to_grayscale/rgb_to_grayscale/Tensordot/GatherV2", "op": "GatherV2", "input": ["StatefulPartitionedCall/cross_dataset_ensemble/tf.image.rgb_to_grayscale/rgb_to_grayscale/Tensordot/Shape", "StatefulPartitionedCall/cross_dataset_ensemble/tf.image.rgb_to_grayscale/rgb_to_grayscale/Tensordot/free", "StatefulPartitionedCall/cross_dataset_ensemble/tf.image.rgb_to_grayscale/rgb_to_grayscale/Tensordot/GatherV2/axis"], "attr": {"Tparams": {"type": "DT_INT32"}, "Taxis": {"type": "DT_INT32"}, "Tindices": {"type": "DT_INT32"}, "batch_dims": {"i": "0"}}}, {"name": "StatefulPartitionedCall/cross_dataset_ensemble/model/MobilenetV3large/rescaling/add", "op": "AddV2", "input": ["StatefulPartitionedCall/cross_dataset_ensemble/model/MobilenetV3large/rescaling/mul", "StatefulPartitionedCall/cross_dataset_ensemble/model/MobilenetV3large/rescaling/Cast_1/x"], "attr": {"T": {"type": "DT_FLOAT"}}}, {"name": "StatefulPartitionedCall/cross_dataset_ensemble/tf.image.rgb_to_grayscale/rgb_to_grayscale/Tensordot/Prod_1", "op": "Prod", "input": ["StatefulPartitionedCall/cross_dataset_ensemble/tf.image.rgb_to_grayscale/rgb_to_grayscale/Tensordot/GatherV2_1", "StatefulPartitionedCall/cross_dataset_ensemble/tf.image.rgb_to_grayscale/rgb_to_grayscale/Tensordot/Const_1"], "attr": {"T": {"type": "DT_INT32"}, "Tidx": {"type": "DT_INT32"}, "keep_dims": {"b": false}}}, {"name": "StatefulPartitionedCall/cross_dataset_ensemble/tf.image.rgb_to_grayscale/rgb_to_grayscale/Tensordot/Prod", "op": "Prod", "input": ["StatefulPartitionedCall/cross_dataset_ensemble/tf.image.rgb_to_grayscale/rgb_to_grayscale/Tensordot/GatherV2", "StatefulPartitionedCall/cross_dataset_ensemble/tf.image.rgb_to_grayscale/rgb_to_grayscale/Tensordot/Const"], "attr": {"T": {"type": "DT_INT32"}, "Tidx": {"type": "DT_INT32"}, "keep_dims": {"b": false}}}, {"name": "StatefulPartitionedCall/cross_dataset_ensemble/tf.image.rgb_to_grayscale/rgb_to_grayscale/Tensordot/concat_1", "op": "ConcatV2", "input": ["StatefulPartitionedCall/cross_dataset_ensemble/tf.image.rgb_to_grayscale/rgb_to_grayscale/Tensordot/GatherV2", "StatefulPartitionedCall/cross_dataset_ensemble/tf.image.rgb_to_grayscale/rgb_to_grayscale/Tensordot/Const_2", "StatefulPartitionedCall/cross_dataset_ensemble/tf.image.rgb_to_grayscale/rgb_to_grayscale/Tensordot/concat_1/axis"], "attr": {"N": {"i": "2"}, "T": {"type": "DT_INT32"}, "Tidx": {"type": "DT_INT32"}}}, {"name": "StatefulPartitionedCall/cross_dataset_ensemble/model/MobilenetV3large/Conv/BatchNorm/FusedBatchNormV3", "op": "_FusedConv2D", "input": ["StatefulPartitionedCall/cross_dataset_ensemble/model/MobilenetV3large/rescaling/add", "StatefulPartitionedCall/cross_dataset_ensemble/model/MobilenetV3large/Conv/Conv2D_weights", "StatefulPartitionedCall/cross_dataset_ensemble/model/MobilenetV3large/Conv/Conv2D_bn_offset"], "device": "/device:CPU:0", "attr": {"num_host_args": {"i": "0"}, "_input_shapes": {"list": {"shape": [{"dim": [{"size": "-4"}, {"size": "-5"}, {"size": "-6"}, {"size": "-7"}]}, {"dim": [{"size": "3"}, {"size": "3"}, {"size": "3"}, {"size": "16"}]}]}}, "filter_format": {"s": "SFdJTw=="}, "data_format": {"s": "TkhXQw=="}, "strides": {"list": {"i": ["1", "2", "2", "1"]}}, "num_args": {"i": "1"}, "fused_ops": {"list": {"s": ["Qmlhc0FkZA=="]}}, "TArgs": {"list": {"type": ["DT_FLOAT"]}}, "padding": {"s": "U0FNRQ=="}, "use_cudnn_on_gpu": {"b": true}, "leakyrelu_alpha": {"f": 0.2}, "epsilon": {"f": 0.0}, "T": {"type": "DT_FLOAT"}, "explicit_paddings": {"list": {}}, "dilations": {"list": {"i": ["1", "1", "1", "1"]}}}}, {"name": "StatefulPartitionedCall/cross_dataset_ensemble/tf.image.rgb_to_grayscale/rgb_to_grayscale/Tensordot/stack", "op": "Pack", "input": ["StatefulPartitionedCall/cross_dataset_ensemble/tf.image.rgb_to_grayscale/rgb_to_grayscale/Tensordot/Prod", "StatefulPartitionedCall/cross_dataset_ensemble/tf.image.rgb_to_grayscale/rgb_to_grayscale/Tensordot/Prod_1"], "attr": {"N": {"i": "2"}, "axis": {"i": "0"}, "T": {"type": "DT_INT32"}}}, {"name": "StatefulPartitionedCall/cross_dataset_ensemble/model/MobilenetV3large/tf.math.multiply/Mul", "op": "Mul", "input": ["StatefulPartitionedCall/cross_dataset_ensemble/model/MobilenetV3large/tf.math.multiply/Mul/y", "StatefulPartitionedCall/cross_dataset_ensemble/model/MobilenetV3large/Conv/BatchNorm/FusedBatchNormV3"], "attr": {"_grappler_ArithmeticOptimizer_MinimizeBroadcasts": {"b": true}, "T": {"type": "DT_FLOAT"}}}, {"name": "StatefulPartitionedCall/cross_dataset_ensemble/model/MobilenetV3large/tf.__operators__.add/AddV2", "op": "AddV2", "input": ["StatefulPartitionedCall/cross_dataset_ensemble/model/MobilenetV3large/Conv/BatchNorm/FusedBatchNormV3", "StatefulPartitionedCall/cross_dataset_ensemble/model/MobilenetV3large/tf.__operators__.add/y"], "attr": {"T": {"type": "DT_FLOAT"}}}, {"name": "StatefulPartitionedCall/cross_dataset_ensemble/tf.image.rgb_to_grayscale/rgb_to_grayscale/Tensordot/Reshape", "op": "Reshape", "input": ["input_image", "StatefulPartitionedCall/cross_dataset_ensemble/tf.image.rgb_to_grayscale/rgb_to_grayscale/Tensordot/stack"], "attr": {"T": {"type": "DT_FLOAT"}, "Tshape": {"type": "DT_INT32"}}}, {"name": "StatefulPartitionedCall/cross_dataset_ensemble/model/MobilenetV3large/re_lu/Relu6", "op": "Relu6", "input": ["StatefulPartitionedCall/cross_dataset_ensemble/model/MobilenetV3large/tf.__operators__.add/AddV2"], "attr": {"T": {"type": "DT_FLOAT"}}}, {"name": "StatefulPartitionedCall/cross_dataset_ensemble/tf.image.rgb_to_grayscale/rgb_to_grayscale/Tensordot/MatMul", "op": "MatMul", "input": ["StatefulPartitionedCall/cross_dataset_ensemble/tf.image.rgb_to_grayscale/rgb_to_grayscale/Tensordot/Reshape", "StatefulPartitionedCall/cross_dataset_ensemble/tf.image.rgb_to_grayscale/rgb_to_grayscale/Tensordot/Reshape_1"], "device": "/device:CPU:0", "attr": {"transpose_a": {"b": false}, "_input_shapes": {"list": {"shape": [{"dim": [{"size": "-8"}, {"size": "3"}]}, {"dim": [{"size": "3"}, {"size": "1"}]}]}}, "T": {"type": "DT_FLOAT"}, "transpose_b": {"b": false}}}, {"name": "StatefulPartitionedCall/cross_dataset_ensemble/model/MobilenetV3large/multiply/mul", "op": "Mul", "input": ["StatefulPartitionedCall/cross_dataset_ensemble/model/MobilenetV3large/tf.math.multiply/Mul", "StatefulPartitionedCall/cross_dataset_ensemble/model/MobilenetV3large/re_lu/Relu6"], "attr": {"_grappler_ArithmeticOptimizer_MinimizeBroadcasts": {"b": true}, "T": {"type": "DT_FLOAT"}}}, {"name": "StatefulPartitionedCall/cross_dataset_ensemble/tf.image.rgb_to_grayscale/rgb_to_grayscale/Tensordot", "op": "Reshape", "input": ["StatefulPartitionedCall/cross_dataset_ensemble/tf.image.rgb_to_grayscale/rgb_to_grayscale/Tensordot/MatMul", "StatefulPartitionedCall/cross_dataset_ensemble/tf.image.rgb_to_grayscale/rgb_to_grayscale/Tensordot/concat_1"], "attr": {"T": {"type": "DT_FLOAT"}, "Tshape": {"type": "DT_INT32"}}}, {"name": "StatefulPartitionedCall/cross_dataset_ensemble/model/MobilenetV3large/expanded_conv/depthwise/depthwise", "op": "FusedDepthwiseConv2dNative", "input": ["StatefulPartitionedCall/cross_dataset_ensemble/model/MobilenetV3large/multiply/mul", "StatefulPartitionedCall/cross_dataset_ensemble/model/MobilenetV3large/expanded_conv/depthwise/depthwise_weights", "StatefulPartitionedCall/cross_dataset_ensemble/model/MobilenetV3large/expanded_conv/depthwise/depthwise_bn_offset"], "attr": {"padding": {"s": "U0FNRQ=="}, "_input_shapes": {"list": {"shape": [{"dim": [{"size": "-4"}, {"size": "-12"}, {"size": "-13"}, {"size": "16"}]}, {"dim": [{"size": "3"}, {"size": "3"}, {"size": "16"}, {"size": "1"}]}]}}, "data_format": {"s": "TkhXQw=="}, "fused_ops": {"list": {"s": ["Qmlhc0FkZA==", "UmVsdQ=="]}}, "num_args": {"i": "1"}, "strides": {"list": {"i": ["1", "1", "1", "1"]}}, "T": {"type": "DT_FLOAT"}, "explicit_paddings": {"list": {}}, "dilations": {"list": {"i": ["1", "1", "1", "1"]}}}}, {"name": "StatefulPartitionedCall/cross_dataset_ensemble/tf.image.rgb_to_grayscale/rgb_to_grayscale/ExpandDims", "op": "ExpandDims", "input": ["StatefulPartitionedCall/cross_dataset_ensemble/tf.image.rgb_to_grayscale/rgb_to_grayscale/Tensordot", "StatefulPartitionedCall/cross_dataset_ensemble/tf.image.rgb_to_grayscale/rgb_to_grayscale/ExpandDims/dim"], "attr": {"Tdim": {"type": "DT_INT32"}, "T": {"type": "DT_FLOAT"}}}, {"name": "StatefulPartitionedCall/cross_dataset_ensemble/tf.image.resize/resize/ResizeBilinear", "op": "ResizeBilinear", "input": ["StatefulPartitionedCall/cross_dataset_ensemble/tf.image.rgb_to_grayscale/rgb_to_grayscale/ExpandDims", "StatefulPartitionedCall/cross_dataset_ensemble/tf.image.resize/resize/size"], "attr": {"T": {"type": "DT_FLOAT"}, "align_corners": {"b": false}, "half_pixel_centers": {"b": true}}}, {"name": "StatefulPartitionedCall/cross_dataset_ensemble/sequential/conv2d/Relu", "op": "_FusedConv2D", "input": ["StatefulPartitionedCall/cross_dataset_ensemble/tf.image.resize/resize/ResizeBilinear", "StatefulPartitionedCall/cross_dataset_ensemble/sequential/conv2d/Conv2D/ReadVariableOp", "StatefulPartitionedCall/cross_dataset_ensemble/sequential/conv2d/BiasAdd/ReadVariableOp"], "device": "/device:CPU:0", "attr": {"num_host_args": {"i": "0"}, "data_format": {"s": "TkhXQw=="}, "filter_format": {"s": "SFdJTw=="}, "_input_shapes": {"list": {"shape": [{"dim": [{"size": "-9"}, {"size": "48"}, {"size": "48"}, {"size": "1"}]}, {"dim": [{"size": "3"}, {"size": "3"}, {"size": "1"}, {"size": "32"}]}]}}, "strides": {"list": {"i": ["1", "1", "1", "1"]}}, "num_args": {"i": "1"}, "fused_ops": {"list": {"s": ["Qmlhc0FkZA==", "UmVsdQ=="]}}, "TArgs": {"list": {"type": ["DT_FLOAT"]}}, "padding": {"s": "U0FNRQ=="}, "use_cudnn_on_gpu": {"b": true}, "leakyrelu_alpha": {"f": 0.2}, "epsilon": {"f": 0.0}, "T": {"type": "DT_FLOAT"}, "explicit_paddings": {"list": {}}, "dilations": {"list": {"i": ["1", "1", "1", "1"]}}}}, {"name": "StatefulPartitionedCall/cross_dataset_ensemble/model/MobilenetV3large/expanded_conv/project/BatchNorm/FusedBatchNormV3", "op": "_FusedConv2D", "input": ["StatefulPartitionedCall/cross_dataset_ensemble/model/MobilenetV3large/expanded_conv/depthwise/depthwise", "StatefulPartitionedCall/cross_dataset_ensemble/model/MobilenetV3large/expanded_conv/project/Conv2D_weights", "StatefulPartitionedCall/cross_dataset_ensemble/model/MobilenetV3large/expanded_conv/project/Conv2D_bn_offset"], "device": "/device:CPU:0", "attr": {"num_host_args": {"i": "0"}, "data_format": {"s": "TkhXQw=="}, "filter_format": {"s": "SFdJTw=="}, "_input_shapes": {"list": {"shape": [{"dim": [{"size": "-4"}, {"size": "-12"}, {"size": "-13"}, {"size": "16"}]}, {"dim": [{"size": "1"}, {"size": "1"}, {"size": "16"}, {"size": "16"}]}]}}, "fused_ops": {"list": {"s": ["Qmlhc0FkZA=="]}}, "num_args": {"i": "1"}, "strides": {"list": {"i": ["1", "1", "1", "1"]}}, "TArgs": {"list": {"type": ["DT_FLOAT"]}}, "padding": {"s": "U0FNRQ=="}, "use_cudnn_on_gpu": {"b": true}, "leakyrelu_alpha": {"f": 0.2}, "epsilon": {"f": 0.0}, "T": {"type": "DT_FLOAT"}, "explicit_paddings": {"list": {}}, "dilations": {"list": {"i": ["1", "1", "1", "1"]}}}}, {"name": "StatefulPartitionedCall/cross_dataset_ensemble/sequential/batch_normalization/FusedBatchNormV3/Mul", "op": "Mul", "input": ["StatefulPartitionedCall/cross_dataset_ensemble/sequential/conv2d/Relu", "StatefulPartitionedCall/cross_dataset_ensemble/sequential/batch_normalization/FusedBatchNormV3/Scaled"], "attr": {"T": {"type": "DT_FLOAT"}}}, {"name": "StatefulPartitionedCall/cross_dataset_ensemble/model/MobilenetV3large/expanded_conv/Add/add", "op": "AddV2", "input": ["StatefulPartitionedCall/cross_dataset_ensemble/model/MobilenetV3large/multiply/mul", "StatefulPartitionedCall/cross_dataset_ensemble/model/MobilenetV3large/expanded_conv/project/BatchNorm/FusedBatchNormV3"], "attr": {"T": {"type": "DT_FLOAT"}}}, {"name": "StatefulPartitionedCall/cross_dataset_ensemble/sequential/batch_normalization/FusedBatchNormV3", "op": "Add", "input": ["StatefulPartitionedCall/cross_dataset_ensemble/sequential/batch_normalization/FusedBatchNormV3/Mul", "StatefulPartitionedCall/cross_dataset_ensemble/sequential/batch_normalization/FusedBatchNormV3/Offset"], "attr": {"T": {"type": "DT_FLOAT"}}}, {"name": "StatefulPartitionedCall/cross_dataset_ensemble/model/MobilenetV3large/re_lu_2/Relu", "op": "_FusedConv2D", "input": ["StatefulPartitionedCall/cross_dataset_ensemble/model/MobilenetV3large/expanded_conv/Add/add", "StatefulPartitionedCall/cross_dataset_ensemble/model/MobilenetV3large/expanded_conv_1/expand/Conv2D_weights", "StatefulPartitionedCall/cross_dataset_ensemble/model/MobilenetV3large/expanded_conv_1/expand/Conv2D_bn_offset"], "device": "/device:CPU:0", "attr": {"num_host_args": {"i": "0"}, "data_format": {"s": "TkhXQw=="}, "filter_format": {"s": "SFdJTw=="}, "_input_shapes": {"list": {"shape": [{"dim": [{"size": "-4"}, {"size": "-12"}, {"size": "-13"}, {"size": "16"}]}, {"dim": [{"size": "1"}, {"size": "1"}, {"size": "16"}, {"size": "64"}]}]}}, "fused_ops": {"list": {"s": ["Qmlhc0FkZA==", "UmVsdQ=="]}}, "num_args": {"i": "1"}, "strides": {"list": {"i": ["1", "1", "1", "1"]}}, "TArgs": {"list": {"type": ["DT_FLOAT"]}}, "padding": {"s": "U0FNRQ=="}, "use_cudnn_on_gpu": {"b": true}, "leakyrelu_alpha": {"f": 0.2}, "epsilon": {"f": 0.0}, "T": {"type": "DT_FLOAT"}, "explicit_paddings": {"list": {}}, "dilations": {"list": {"i": ["1", "1", "1", "1"]}}}}, {"name": "StatefulPartitionedCall/cross_dataset_ensemble/sequential/conv2d_1/Relu", "op": "_FusedConv2D", "input": ["StatefulPartitionedCall/cross_dataset_ensemble/sequential/batch_normalization/FusedBatchNormV3", "StatefulPartitionedCall/cross_dataset_ensemble/sequential/conv2d_1/Conv2D/ReadVariableOp", "StatefulPartitionedCall/cross_dataset_ensemble/sequential/conv2d_1/BiasAdd/ReadVariableOp"], "device": "/device:CPU:0", "attr": {"num_host_args": {"i": "0"}, "_input_shapes": {"list": {"shape": [{"dim": [{"size": "-9"}, {"size": "48"}, {"size": "48"}, {"size": "32"}]}, {"dim": [{"size": "3"}, {"size": "3"}, {"size": "32"}, {"size": "32"}]}]}}, "filter_format": {"s": "SFdJTw=="}, "data_format": {"s": "TkhXQw=="}, "strides": {"list": {"i": ["1", "1", "1", "1"]}}, "num_args": {"i": "1"}, "fused_ops": {"list": {"s": ["Qmlhc0FkZA==", "UmVsdQ=="]}}, "TArgs": {"list": {"type": ["DT_FLOAT"]}}, "padding": {"s": "U0FNRQ=="}, "use_cudnn_on_gpu": {"b": true}, "leakyrelu_alpha": {"f": 0.2}, "epsilon": {"f": 0.0}, "T": {"type": "DT_FLOAT"}, "explicit_paddings": {"list": {}}, "dilations": {"list": {"i": ["1", "1", "1", "1"]}}}}, {"name": "StatefulPartitionedCall/cross_dataset_ensemble/model/MobilenetV3large/expanded_conv_1/depthwise/pad/Pad", "op": "Pad", "input": ["StatefulPartitionedCall/cross_dataset_ensemble/model/MobilenetV3large/re_lu_2/Relu", "StatefulPartitionedCall/cross_dataset_ensemble/model/MobilenetV3large/expanded_conv_1/depthwise/pad/Pad/paddings"], "attr": {"Tpaddings": {"type": "DT_INT32"}, "T": {"type": "DT_FLOAT"}}}, {"name": "StatefulPartitionedCall/cross_dataset_ensemble/sequential/batch_normalization_1/FusedBatchNormV3/Mul", "op": "Mul", "input": ["StatefulPartitionedCall/cross_dataset_ensemble/sequential/conv2d_1/Relu", "StatefulPartitionedCall/cross_dataset_ensemble/sequential/batch_normalization_1/FusedBatchNormV3/Scaled"], "attr": {"T": {"type": "DT_FLOAT"}}}, {"name": "StatefulPartitionedCall/cross_dataset_ensemble/model/MobilenetV3large/expanded_conv_1/depthwise/depthwise", "op": "FusedDepthwiseConv2dNative", "input": ["StatefulPartitionedCall/cross_dataset_ensemble/model/MobilenetV3large/expanded_conv_1/depthwise/pad/Pad", "StatefulPartitionedCall/cross_dataset_ensemble/model/MobilenetV3large/expanded_conv_1/depthwise/depthwise_weights", "StatefulPartitionedCall/cross_dataset_ensemble/model/MobilenetV3large/expanded_conv_1/depthwise/depthwise_bn_offset"], "attr": {"padding": {"s": "VkFMSUQ="}, "_input_shapes": {"list": {"shape": [{"dim": [{"size": "-4"}, {"size": "-14"}, {"size": "-15"}, {"size": "64"}]}, {"dim": [{"size": "3"}, {"size": "3"}, {"size": "64"}, {"size": "1"}]}]}}, "data_format": {"s": "TkhXQw=="}, "fused_ops": {"list": {"s": ["Qmlhc0FkZA==", "UmVsdQ=="]}}, "num_args": {"i": "1"}, "strides": {"list": {"i": ["1", "2", "2", "1"]}}, "T": {"type": "DT_FLOAT"}, "explicit_paddings": {"list": {}}, "dilations": {"list": {"i": ["1", "1", "1", "1"]}}}}, {"name": "StatefulPartitionedCall/cross_dataset_ensemble/sequential/batch_normalization_1/FusedBatchNormV3", "op": "Add", "input": ["StatefulPartitionedCall/cross_dataset_ensemble/sequential/batch_normalization_1/FusedBatchNormV3/Mul", "StatefulPartitionedCall/cross_dataset_ensemble/sequential/batch_normalization_1/FusedBatchNormV3/Offset"], "attr": {"T": {"type": "DT_FLOAT"}}}, {"name": "StatefulPartitionedCall/cross_dataset_ensemble/sequential/max_pooling2d/MaxPool", "op": "MaxPool", "input": ["StatefulPartitionedCall/cross_dataset_ensemble/sequential/batch_normalization_1/FusedBatchNormV3"], "attr": {"padding": {"s": "VkFMSUQ="}, "data_format": {"s": "TkhXQw=="}, "T": {"type": "DT_FLOAT"}, "explicit_paddings": {"list": {}}, "ksize": {"list": {"i": ["1", "2", "2", "1"]}}, "strides": {"list": {"i": ["1", "2", "2", "1"]}}}}, {"name": "StatefulPartitionedCall/cross_dataset_ensemble/sequential/conv2d_2/Relu", "op": "_FusedConv2D", "input": ["StatefulPartitionedCall/cross_dataset_ensemble/sequential/max_pooling2d/MaxPool", "StatefulPartitionedCall/cross_dataset_ensemble/sequential/conv2d_2/Conv2D/ReadVariableOp", "StatefulPartitionedCall/cross_dataset_ensemble/sequential/conv2d_2/BiasAdd/ReadVariableOp"], "device": "/device:CPU:0", "attr": {"num_host_args": {"i": "0"}, "data_format": {"s": "TkhXQw=="}, "filter_format": {"s": "SFdJTw=="}, "_input_shapes": {"list": {"shape": [{"dim": [{"size": "-9"}, {"size": "24"}, {"size": "24"}, {"size": "32"}]}, {"dim": [{"size": "3"}, {"size": "3"}, {"size": "32"}, {"size": "64"}]}]}}, "strides": {"list": {"i": ["1", "1", "1", "1"]}}, "num_args": {"i": "1"}, "fused_ops": {"list": {"s": ["Qmlhc0FkZA==", "UmVsdQ=="]}}, "TArgs": {"list": {"type": ["DT_FLOAT"]}}, "padding": {"s": "U0FNRQ=="}, "use_cudnn_on_gpu": {"b": true}, "leakyrelu_alpha": {"f": 0.2}, "epsilon": {"f": 0.0}, "T": {"type": "DT_FLOAT"}, "explicit_paddings": {"list": {}}, "dilations": {"list": {"i": ["1", "1", "1", "1"]}}}}, {"name": "StatefulPartitionedCall/cross_dataset_ensemble/model/MobilenetV3large/expanded_conv_1/project/BatchNorm/FusedBatchNormV3", "op": "_FusedConv2D", "input": ["StatefulPartitionedCall/cross_dataset_ensemble/model/MobilenetV3large/expanded_conv_1/depthwise/depthwise", "StatefulPartitionedCall/cross_dataset_ensemble/model/MobilenetV3large/expanded_conv_1/project/Conv2D_weights", "StatefulPartitionedCall/cross_dataset_ensemble/model/MobilenetV3large/expanded_conv_1/project/Conv2D_bn_offset"], "device": "/device:CPU:0", "attr": {"num_host_args": {"i": "0"}, "_input_shapes": {"list": {"shape": [{"dim": [{"size": "-4"}, {"size": "-16"}, {"size": "-17"}, {"size": "64"}]}, {"dim": [{"size": "1"}, {"size": "1"}, {"size": "64"}, {"size": "24"}]}]}}, "filter_format": {"s": "SFdJTw=="}, "data_format": {"s": "TkhXQw=="}, "strides": {"list": {"i": ["1", "1", "1", "1"]}}, "num_args": {"i": "1"}, "fused_ops": {"list": {"s": ["Qmlhc0FkZA=="]}}, "TArgs": {"list": {"type": ["DT_FLOAT"]}}, "padding": {"s": "U0FNRQ=="}, "use_cudnn_on_gpu": {"b": true}, "leakyrelu_alpha": {"f": 0.2}, "epsilon": {"f": 0.0}, "T": {"type": "DT_FLOAT"}, "explicit_paddings": {"list": {}}, "dilations": {"list": {"i": ["1", "1", "1", "1"]}}}}, {"name": "StatefulPartitionedCall/cross_dataset_ensemble/sequential/batch_normalization_2/FusedBatchNormV3/Mul", "op": "Mul", "input": ["StatefulPartitionedCall/cross_dataset_ensemble/sequential/conv2d_2/Relu", "StatefulPartitionedCall/cross_dataset_ensemble/sequential/batch_normalization_2/FusedBatchNormV3/Scaled"], "attr": {"T": {"type": "DT_FLOAT"}}}, {"name": "StatefulPartitionedCall/cross_dataset_ensemble/model/MobilenetV3large/re_lu_4/Relu", "op": "_FusedConv2D", "input": ["StatefulPartitionedCall/cross_dataset_ensemble/model/MobilenetV3large/expanded_conv_1/project/BatchNorm/FusedBatchNormV3", "StatefulPartitionedCall/cross_dataset_ensemble/model/MobilenetV3large/expanded_conv_2/expand/Conv2D_weights", "StatefulPartitionedCall/cross_dataset_ensemble/model/MobilenetV3large/expanded_conv_2/expand/Conv2D_bn_offset"], "device": "/device:CPU:0", "attr": {"num_host_args": {"i": "0"}, "data_format": {"s": "TkhXQw=="}, "filter_format": {"s": "SFdJTw=="}, "_input_shapes": {"list": {"shape": [{"dim": [{"size": "-4"}, {"size": "-16"}, {"size": "-17"}, {"size": "24"}]}, {"dim": [{"size": "1"}, {"size": "1"}, {"size": "24"}, {"size": "72"}]}]}}, "fused_ops": {"list": {"s": ["Qmlhc0FkZA==", "UmVsdQ=="]}}, "num_args": {"i": "1"}, "strides": {"list": {"i": ["1", "1", "1", "1"]}}, "TArgs": {"list": {"type": ["DT_FLOAT"]}}, "padding": {"s": "U0FNRQ=="}, "use_cudnn_on_gpu": {"b": true}, "leakyrelu_alpha": {"f": 0.2}, "epsilon": {"f": 0.0}, "T": {"type": "DT_FLOAT"}, "explicit_paddings": {"list": {}}, "dilations": {"list": {"i": ["1", "1", "1", "1"]}}}}, {"name": "StatefulPartitionedCall/cross_dataset_ensemble/sequential/batch_normalization_2/FusedBatchNormV3", "op": "Add", "input": ["StatefulPartitionedCall/cross_dataset_ensemble/sequential/batch_normalization_2/FusedBatchNormV3/Mul", "StatefulPartitionedCall/cross_dataset_ensemble/sequential/batch_normalization_2/FusedBatchNormV3/Offset"], "attr": {"T": {"type": "DT_FLOAT"}}}, {"name": "StatefulPartitionedCall/cross_dataset_ensemble/model/MobilenetV3large/expanded_conv_2/depthwise/depthwise", "op": "FusedDepthwiseConv2dNative", "input": ["StatefulPartitionedCall/cross_dataset_ensemble/model/MobilenetV3large/re_lu_4/Relu", "StatefulPartitionedCall/cross_dataset_ensemble/model/MobilenetV3large/expanded_conv_2/depthwise/depthwise_weights", "StatefulPartitionedCall/cross_dataset_ensemble/model/MobilenetV3large/expanded_conv_2/depthwise/depthwise_bn_offset"], "attr": {"padding": {"s": "U0FNRQ=="}, "_input_shapes": {"list": {"shape": [{"dim": [{"size": "-4"}, {"size": "-16"}, {"size": "-17"}, {"size": "72"}]}, {"dim": [{"size": "3"}, {"size": "3"}, {"size": "72"}, {"size": "1"}]}]}}, "data_format": {"s": "TkhXQw=="}, "fused_ops": {"list": {"s": ["Qmlhc0FkZA==", "UmVsdQ=="]}}, "num_args": {"i": "1"}, "strides": {"list": {"i": ["1", "1", "1", "1"]}}, "T": {"type": "DT_FLOAT"}, "explicit_paddings": {"list": {}}, "dilations": {"list": {"i": ["1", "1", "1", "1"]}}}}, {"name": "StatefulPartitionedCall/cross_dataset_ensemble/sequential/conv2d_3/Relu", "op": "_FusedConv2D", "input": ["StatefulPartitionedCall/cross_dataset_ensemble/sequential/batch_normalization_2/FusedBatchNormV3", "StatefulPartitionedCall/cross_dataset_ensemble/sequential/conv2d_3/Conv2D/ReadVariableOp", "StatefulPartitionedCall/cross_dataset_ensemble/sequential/conv2d_3/BiasAdd/ReadVariableOp"], "device": "/device:CPU:0", "attr": {"num_host_args": {"i": "0"}, "data_format": {"s": "TkhXQw=="}, "filter_format": {"s": "SFdJTw=="}, "_input_shapes": {"list": {"shape": [{"dim": [{"size": "-9"}, {"size": "24"}, {"size": "24"}, {"size": "64"}]}, {"dim": [{"size": "3"}, {"size": "3"}, {"size": "64"}, {"size": "64"}]}]}}, "fused_ops": {"list": {"s": ["Qmlhc0FkZA==", "UmVsdQ=="]}}, "num_args": {"i": "1"}, "strides": {"list": {"i": ["1", "1", "1", "1"]}}, "TArgs": {"list": {"type": ["DT_FLOAT"]}}, "padding": {"s": "U0FNRQ=="}, "use_cudnn_on_gpu": {"b": true}, "leakyrelu_alpha": {"f": 0.2}, "epsilon": {"f": 0.0}, "T": {"type": "DT_FLOAT"}, "explicit_paddings": {"list": {}}, "dilations": {"list": {"i": ["1", "1", "1", "1"]}}}}, {"name": "StatefulPartitionedCall/cross_dataset_ensemble/sequential/batch_normalization_3/FusedBatchNormV3/Mul", "op": "Mul", "input": ["StatefulPartitionedCall/cross_dataset_ensemble/sequential/conv2d_3/Relu", "StatefulPartitionedCall/cross_dataset_ensemble/sequential/batch_normalization_3/FusedBatchNormV3/Scaled"], "attr": {"T": {"type": "DT_FLOAT"}}}, {"name": "StatefulPartitionedCall/cross_dataset_ensemble/sequential/batch_normalization_3/FusedBatchNormV3", "op": "Add", "input": ["StatefulPartitionedCall/cross_dataset_ensemble/sequential/batch_normalization_3/FusedBatchNormV3/Mul", "StatefulPartitionedCall/cross_dataset_ensemble/sequential/batch_normalization_3/FusedBatchNormV3/Offset"], "attr": {"T": {"type": "DT_FLOAT"}}}, {"name": "StatefulPartitionedCall/cross_dataset_ensemble/model/MobilenetV3large/expanded_conv_2/project/BatchNorm/FusedBatchNormV3", "op": "_FusedConv2D", "input": ["StatefulPartitionedCall/cross_dataset_ensemble/model/MobilenetV3large/expanded_conv_2/depthwise/depthwise", "StatefulPartitionedCall/cross_dataset_ensemble/model/MobilenetV3large/expanded_conv_2/project/Conv2D_weights", "StatefulPartitionedCall/cross_dataset_ensemble/model/MobilenetV3large/expanded_conv_2/project/Conv2D_bn_offset"], "device": "/device:CPU:0", "attr": {"num_host_args": {"i": "0"}, "_input_shapes": {"list": {"shape": [{"dim": [{"size": "-4"}, {"size": "-16"}, {"size": "-17"}, {"size": "72"}]}, {"dim": [{"size": "1"}, {"size": "1"}, {"size": "72"}, {"size": "24"}]}]}}, "filter_format": {"s": "SFdJTw=="}, "data_format": {"s": "TkhXQw=="}, "fused_ops": {"list": {"s": ["Qmlhc0FkZA=="]}}, "num_args": {"i": "1"}, "strides": {"list": {"i": ["1", "1", "1", "1"]}}, "TArgs": {"list": {"type": ["DT_FLOAT"]}}, "padding": {"s": "U0FNRQ=="}, "use_cudnn_on_gpu": {"b": true}, "leakyrelu_alpha": {"f": 0.2}, "epsilon": {"f": 0.0}, "T": {"type": "DT_FLOAT"}, "explicit_paddings": {"list": {}}, "dilations": {"list": {"i": ["1", "1", "1", "1"]}}}}, {"name": "StatefulPartitionedCall/cross_dataset_ensemble/sequential/max_pooling2d_1/MaxPool", "op": "MaxPool", "input": ["StatefulPartitionedCall/cross_dataset_ensemble/sequential/batch_normalization_3/FusedBatchNormV3"], "attr": {"ksize": {"list": {"i": ["1", "2", "2", "1"]}}, "data_format": {"s": "TkhXQw=="}, "T": {"type": "DT_FLOAT"}, "explicit_paddings": {"list": {}}, "padding": {"s": "VkFMSUQ="}, "strides": {"list": {"i": ["1", "2", "2", "1"]}}}}, {"name": "StatefulPartitionedCall/cross_dataset_ensemble/model/MobilenetV3large/expanded_conv_2/Add/add", "op": "AddV2", "input": ["StatefulPartitionedCall/cross_dataset_ensemble/model/MobilenetV3large/expanded_conv_1/project/BatchNorm/FusedBatchNormV3", "StatefulPartitionedCall/cross_dataset_ensemble/model/MobilenetV3large/expanded_conv_2/project/BatchNorm/FusedBatchNormV3"], "attr": {"T": {"type": "DT_FLOAT"}}}, {"name": "StatefulPartitionedCall/cross_dataset_ensemble/sequential/conv2d_4/Relu", "op": "_FusedConv2D", "input": ["StatefulPartitionedCall/cross_dataset_ensemble/sequential/max_pooling2d_1/MaxPool", "StatefulPartitionedCall/cross_dataset_ensemble/sequential/conv2d_4/Conv2D/ReadVariableOp", "StatefulPartitionedCall/cross_dataset_ensemble/sequential/conv2d_4/BiasAdd/ReadVariableOp"], "device": "/device:CPU:0", "attr": {"num_host_args": {"i": "0"}, "data_format": {"s": "TkhXQw=="}, "filter_format": {"s": "SFdJTw=="}, "_input_shapes": {"list": {"shape": [{"dim": [{"size": "-9"}, {"size": "12"}, {"size": "12"}, {"size": "64"}]}, {"dim": [{"size": "3"}, {"size": "3"}, {"size": "64"}, {"size": "128"}]}]}}, "fused_ops": {"list": {"s": ["Qmlhc0FkZA==", "UmVsdQ=="]}}, "num_args": {"i": "1"}, "strides": {"list": {"i": ["1", "1", "1", "1"]}}, "TArgs": {"list": {"type": ["DT_FLOAT"]}}, "padding": {"s": "U0FNRQ=="}, "use_cudnn_on_gpu": {"b": true}, "leakyrelu_alpha": {"f": 0.2}, "epsilon": {"f": 0.0}, "T": {"type": "DT_FLOAT"}, "explicit_paddings": {"list": {}}, "dilations": {"list": {"i": ["1", "1", "1", "1"]}}}}, {"name": "StatefulPartitionedCall/cross_dataset_ensemble/model/MobilenetV3large/re_lu_6/Relu", "op": "_FusedConv2D", "input": ["StatefulPartitionedCall/cross_dataset_ensemble/model/MobilenetV3large/expanded_conv_2/Add/add", "StatefulPartitionedCall/cross_dataset_ensemble/model/MobilenetV3large/expanded_conv_3/expand/Conv2D_weights", "StatefulPartitionedCall/cross_dataset_ensemble/model/MobilenetV3large/expanded_conv_3/expand/Conv2D_bn_offset"], "device": "/device:CPU:0", "attr": {"num_host_args": {"i": "0"}, "data_format": {"s": "TkhXQw=="}, "filter_format": {"s": "SFdJTw=="}, "_input_shapes": {"list": {"shape": [{"dim": [{"size": "-4"}, {"size": "-16"}, {"size": "-17"}, {"size": "24"}]}, {"dim": [{"size": "1"}, {"size": "1"}, {"size": "24"}, {"size": "72"}]}]}}, "fused_ops": {"list": {"s": ["Qmlhc0FkZA==", "UmVsdQ=="]}}, "num_args": {"i": "1"}, "strides": {"list": {"i": ["1", "1", "1", "1"]}}, "TArgs": {"list": {"type": ["DT_FLOAT"]}}, "padding": {"s": "U0FNRQ=="}, "use_cudnn_on_gpu": {"b": true}, "leakyrelu_alpha": {"f": 0.2}, "epsilon": {"f": 0.0}, "T": {"type": "DT_FLOAT"}, "explicit_paddings": {"list": {}}, "dilations": {"list": {"i": ["1", "1", "1", "1"]}}}}, {"name": "StatefulPartitionedCall/cross_dataset_ensemble/sequential/batch_normalization_4/FusedBatchNormV3/Mul", "op": "Mul", "input": ["StatefulPartitionedCall/cross_dataset_ensemble/sequential/conv2d_4/Relu", "StatefulPartitionedCall/cross_dataset_ensemble/sequential/batch_normalization_4/FusedBatchNormV3/Scaled"], "attr": {"T": {"type": "DT_FLOAT"}}}, {"name": "StatefulPartitionedCall/cross_dataset_ensemble/model/MobilenetV3large/expanded_conv_3/depthwise/pad/Pad", "op": "Pad", "input": ["StatefulPartitionedCall/cross_dataset_ensemble/model/MobilenetV3large/re_lu_6/Relu", "StatefulPartitionedCall/cross_dataset_ensemble/model/MobilenetV3large/expanded_conv_3/depthwise/pad/Pad/paddings"], "attr": {"Tpaddings": {"type": "DT_INT32"}, "T": {"type": "DT_FLOAT"}}}, {"name": "StatefulPartitionedCall/cross_dataset_ensemble/sequential/batch_normalization_4/FusedBatchNormV3", "op": "Add", "input": ["StatefulPartitionedCall/cross_dataset_ensemble/sequential/batch_normalization_4/FusedBatchNormV3/Mul", "StatefulPartitionedCall/cross_dataset_ensemble/sequential/batch_normalization_4/FusedBatchNormV3/Offset"], "attr": {"T": {"type": "DT_FLOAT"}}}, {"name": "StatefulPartitionedCall/cross_dataset_ensemble/model/MobilenetV3large/expanded_conv_3/depthwise/depthwise", "op": "FusedDepthwiseConv2dNative", "input": ["StatefulPartitionedCall/cross_dataset_ensemble/model/MobilenetV3large/expanded_conv_3/depthwise/pad/Pad", "StatefulPartitionedCall/cross_dataset_ensemble/model/MobilenetV3large/expanded_conv_3/depthwise/depthwise_weights", "StatefulPartitionedCall/cross_dataset_ensemble/model/MobilenetV3large/expanded_conv_3/depthwise/depthwise_bn_offset"], "attr": {"padding": {"s": "VkFMSUQ="}, "data_format": {"s": "TkhXQw=="}, "_input_shapes": {"list": {"shape": [{"dim": [{"size": "-4"}, {"size": "-18"}, {"size": "-19"}, {"size": "72"}]}, {"dim": [{"size": "5"}, {"size": "5"}, {"size": "72"}, {"size": "1"}]}]}}, "fused_ops": {"list": {"s": ["Qmlhc0FkZA==", "UmVsdQ=="]}}, "num_args": {"i": "1"}, "strides": {"list": {"i": ["1", "2", "2", "1"]}}, "T": {"type": "DT_FLOAT"}, "explicit_paddings": {"list": {}}, "dilations": {"list": {"i": ["1", "1", "1", "1"]}}}}, {"name": "StatefulPartitionedCall/cross_dataset_ensemble/sequential/conv2d_5/Relu", "op": "_FusedConv2D", "input": ["StatefulPartitionedCall/cross_dataset_ensemble/sequential/batch_normalization_4/FusedBatchNormV3", "StatefulPartitionedCall/cross_dataset_ensemble/sequential/conv2d_5/Conv2D/ReadVariableOp", "StatefulPartitionedCall/cross_dataset_ensemble/sequential/conv2d_5/BiasAdd/ReadVariableOp"], "device": "/device:CPU:0", "attr": {"num_host_args": {"i": "0"}, "data_format": {"s": "TkhXQw=="}, "filter_format": {"s": "SFdJTw=="}, "_input_shapes": {"list": {"shape": [{"dim": [{"size": "-9"}, {"size": "12"}, {"size": "12"}, {"size": "128"}]}, {"dim": [{"size": "3"}, {"size": "3"}, {"size": "128"}, {"size": "128"}]}]}}, "strides": {"list": {"i": ["1", "1", "1", "1"]}}, "num_args": {"i": "1"}, "fused_ops": {"list": {"s": ["Qmlhc0FkZA==", "UmVsdQ=="]}}, "TArgs": {"list": {"type": ["DT_FLOAT"]}}, "padding": {"s": "U0FNRQ=="}, "use_cudnn_on_gpu": {"b": true}, "leakyrelu_alpha": {"f": 0.2}, "epsilon": {"f": 0.0}, "T": {"type": "DT_FLOAT"}, "explicit_paddings": {"list": {}}, "dilations": {"list": {"i": ["1", "1", "1", "1"]}}}}, {"name": "StatefulPartitionedCall/cross_dataset_ensemble/sequential/batch_normalization_5/FusedBatchNormV3/Mul", "op": "Mul", "input": ["StatefulPartitionedCall/cross_dataset_ensemble/sequential/conv2d_5/Relu", "StatefulPartitionedCall/cross_dataset_ensemble/sequential/batch_normalization_5/FusedBatchNormV3/Scaled"], "attr": {"T": {"type": "DT_FLOAT"}}}, {"name": "StatefulPartitionedCall/cross_dataset_ensemble/sequential/batch_normalization_5/FusedBatchNormV3", "op": "Add", "input": ["StatefulPartitionedCall/cross_dataset_ensemble/sequential/batch_normalization_5/FusedBatchNormV3/Mul", "StatefulPartitionedCall/cross_dataset_ensemble/sequential/batch_normalization_5/FusedBatchNormV3/Offset"], "attr": {"T": {"type": "DT_FLOAT"}}}, {"name": "StatefulPartitionedCall/cross_dataset_ensemble/model/MobilenetV3large/expanded_conv_3/squeeze_excite/AvgPool/Mean", "op": "Mean", "input": ["StatefulPartitionedCall/cross_dataset_ensemble/model/MobilenetV3large/expanded_conv_3/depthwise/depthwise", "StatefulPartitionedCall/cross_dataset_ensemble/model/MobilenetV3large/expanded_conv_3/squeeze_excite/AvgPool/Mean/reduction_indices"], "attr": {"T": {"type": "DT_FLOAT"}, "Tidx": {"type": "DT_INT32"}, "keep_dims": {"b": true}}}, {"name": "StatefulPartitionedCall/cross_dataset_ensemble/sequential/max_pooling2d_2/MaxPool", "op": "MaxPool", "input": ["StatefulPartitionedCall/cross_dataset_ensemble/sequential/batch_normalization_5/FusedBatchNormV3"], "attr": {"padding": {"s": "VkFMSUQ="}, "data_format": {"s": "TkhXQw=="}, "T": {"type": "DT_FLOAT"}, "explicit_paddings": {"list": {}}, "ksize": {"list": {"i": ["1", "2", "2", "1"]}}, "strides": {"list": {"i": ["1", "2", "2", "1"]}}}}, {"name": "StatefulPartitionedCall/cross_dataset_ensemble/model/MobilenetV3large/expanded_conv_3/squeeze_excite/Relu/Relu", "op": "_FusedConv2D", "input": ["StatefulPartitionedCall/cross_dataset_ensemble/model/MobilenetV3large/expanded_conv_3/squeeze_excite/AvgPool/Mean", "StatefulPartitionedCall/cross_dataset_ensemble/model/MobilenetV3large/expanded_conv_3/squeeze_excite/Conv/Conv2D/ReadVariableOp", "StatefulPartitionedCall/cross_dataset_ensemble/model/MobilenetV3large/expanded_conv_3/squeeze_excite/Conv/BiasAdd/ReadVariableOp"], "device": "/device:CPU:0", "attr": {"num_host_args": {"i": "0"}, "data_format": {"s": "TkhXQw=="}, "filter_format": {"s": "SFdJTw=="}, "_input_shapes": {"list": {"shape": [{"dim": [{"size": "-4"}, {"size": "1"}, {"size": "1"}, {"size": "72"}]}, {"dim": [{"size": "1"}, {"size": "1"}, {"size": "72"}, {"size": "24"}]}]}}, "strides": {"list": {"i": ["1", "1", "1", "1"]}}, "num_args": {"i": "1"}, "fused_ops": {"list": {"s": ["Qmlhc0FkZA==", "UmVsdQ=="]}}, "TArgs": {"list": {"type": ["DT_FLOAT"]}}, "padding": {"s": "U0FNRQ=="}, "use_cudnn_on_gpu": {"b": true}, "leakyrelu_alpha": {"f": 0.2}, "epsilon": {"f": 0.0}, "T": {"type": "DT_FLOAT"}, "explicit_paddings": {"list": {}}, "dilations": {"list": {"i": ["1", "1", "1", "1"]}}}}, {"name": "StatefulPartitionedCall/cross_dataset_ensemble/sequential/conv2d_6/Relu", "op": "_FusedConv2D", "input": ["StatefulPartitionedCall/cross_dataset_ensemble/sequential/max_pooling2d_2/MaxPool", "StatefulPartitionedCall/cross_dataset_ensemble/sequential/conv2d_6/Conv2D/ReadVariableOp", "StatefulPartitionedCall/cross_dataset_ensemble/sequential/conv2d_6/BiasAdd/ReadVariableOp"], "device": "/device:CPU:0", "attr": {"num_host_args": {"i": "0"}, "_input_shapes": {"list": {"shape": [{"dim": [{"size": "-9"}, {"size": "6"}, {"size": "6"}, {"size": "128"}]}, {"dim": [{"size": "3"}, {"size": "3"}, {"size": "128"}, {"size": "256"}]}]}}, "filter_format": {"s": "SFdJTw=="}, "data_format": {"s": "TkhXQw=="}, "fused_ops": {"list": {"s": ["Qmlhc0FkZA==", "UmVsdQ=="]}}, "num_args": {"i": "1"}, "strides": {"list": {"i": ["1", "1", "1", "1"]}}, "TArgs": {"list": {"type": ["DT_FLOAT"]}}, "padding": {"s": "U0FNRQ=="}, "use_cudnn_on_gpu": {"b": true}, "leakyrelu_alpha": {"f": 0.2}, "epsilon": {"f": 0.0}, "T": {"type": "DT_FLOAT"}, "explicit_paddings": {"list": {}}, "dilations": {"list": {"i": ["1", "1", "1", "1"]}}}}, {"name": "StatefulPartitionedCall/cross_dataset_ensemble/model/MobilenetV3large/expanded_conv_3/squeeze_excite/Conv_1/BiasAdd", "op": "_FusedConv2D", "input": ["StatefulPartitionedCall/cross_dataset_ensemble/model/MobilenetV3large/expanded_conv_3/squeeze_excite/Relu/Relu", "StatefulPartitionedCall/cross_dataset_ensemble/model/MobilenetV3large/expanded_conv_3/squeeze_excite/Conv_1/Conv2D/ReadVariableOp", "StatefulPartitionedCall/cross_dataset_ensemble/model/MobilenetV3large/expanded_conv_3/squeeze_excite/Conv_1/BiasAdd/ReadVariableOp"], "device": "/device:CPU:0", "attr": {"num_host_args": {"i": "0"}, "_input_shapes": {"list": {"shape": [{"dim": [{"size": "-4"}, {"size": "1"}, {"size": "1"}, {"size": "24"}]}, {"dim": [{"size": "1"}, {"size": "1"}, {"size": "24"}, {"size": "72"}]}]}}, "filter_format": {"s": "SFdJTw=="}, "data_format": {"s": "TkhXQw=="}, "fused_ops": {"list": {"s": ["Qmlhc0FkZA=="]}}, "num_args": {"i": "1"}, "strides": {"list": {"i": ["1", "1", "1", "1"]}}, "TArgs": {"list": {"type": ["DT_FLOAT"]}}, "padding": {"s": "U0FNRQ=="}, "use_cudnn_on_gpu": {"b": true}, "leakyrelu_alpha": {"f": 0.2}, "epsilon": {"f": 0.0}, "T": {"type": "DT_FLOAT"}, "explicit_paddings": {"list": {}}, "dilations": {"list": {"i": ["1", "1", "1", "1"]}}}}, {"name": "StatefulPartitionedCall/cross_dataset_ensemble/sequential/batch_normalization_6/FusedBatchNormV3/Mul", "op": "Mul", "input": ["StatefulPartitionedCall/cross_dataset_ensemble/sequential/conv2d_6/Relu", "StatefulPartitionedCall/cross_dataset_ensemble/sequential/batch_normalization_6/FusedBatchNormV3/Scaled"], "attr": {"T": {"type": "DT_FLOAT"}}}, {"name": "StatefulPartitionedCall/cross_dataset_ensemble/model/MobilenetV3large/tf.__operators__.add_1/AddV2", "op": "AddV2", "input": ["StatefulPartitionedCall/cross_dataset_ensemble/model/MobilenetV3large/expanded_conv_3/squeeze_excite/Conv_1/BiasAdd", "StatefulPartitionedCall/cross_dataset_ensemble/model/MobilenetV3large/tf.__operators__.add_1/y"], "attr": {"T": {"type": "DT_FLOAT"}}}, {"name": "StatefulPartitionedCall/cross_dataset_ensemble/sequential/batch_normalization_6/FusedBatchNormV3", "op": "Add", "input": ["StatefulPartitionedCall/cross_dataset_ensemble/sequential/batch_normalization_6/FusedBatchNormV3/Mul", "StatefulPartitionedCall/cross_dataset_ensemble/sequential/batch_normalization_6/FusedBatchNormV3/Offset"], "attr": {"T": {"type": "DT_FLOAT"}}}, {"name": "StatefulPartitionedCall/cross_dataset_ensemble/model/MobilenetV3large/re_lu_8/Relu6", "op": "Relu6", "input": ["StatefulPartitionedCall/cross_dataset_ensemble/model/MobilenetV3large/tf.__operators__.add_1/AddV2"], "attr": {"T": {"type": "DT_FLOAT"}}}, {"name": "StatefulPartitionedCall/cross_dataset_ensemble/sequential/max_pooling2d_3/MaxPool", "op": "MaxPool", "input": ["StatefulPartitionedCall/cross_dataset_ensemble/sequential/batch_normalization_6/FusedBatchNormV3"], "attr": {"padding": {"s": "VkFMSUQ="}, "data_format": {"s": "TkhXQw=="}, "T": {"type": "DT_FLOAT"}, "explicit_paddings": {"list": {}}, "ksize": {"list": {"i": ["1", "2", "2", "1"]}}, "strides": {"list": {"i": ["1", "2", "2", "1"]}}}}, {"name": "StatefulPartitionedCall/cross_dataset_ensemble/model/MobilenetV3large/tf.math.multiply_1/Mul", "op": "Mul", "input": ["StatefulPartitionedCall/cross_dataset_ensemble/model/MobilenetV3large/tf.math.multiply_1/Mul/y", "StatefulPartitionedCall/cross_dataset_ensemble/model/MobilenetV3large/re_lu_8/Relu6"], "attr": {"_grappler_ArithmeticOptimizer_MinimizeBroadcasts": {"b": true}, "T": {"type": "DT_FLOAT"}}}, {"name": "StatefulPartitionedCall/cross_dataset_ensemble/sequential/flatten/Reshape", "op": "Reshape", "input": ["StatefulPartitionedCall/cross_dataset_ensemble/sequential/max_pooling2d_3/MaxPool", "StatefulPartitionedCall/cross_dataset_ensemble/sequential/flatten/Const"], "attr": {"T": {"type": "DT_FLOAT"}, "Tshape": {"type": "DT_INT32"}}}, {"name": "StatefulPartitionedCall/cross_dataset_ensemble/model/MobilenetV3large/expanded_conv_3/squeeze_excite/Mul/mul", "op": "Mul", "input": ["StatefulPartitionedCall/cross_dataset_ensemble/model/MobilenetV3large/tf.math.multiply_1/Mul", "StatefulPartitionedCall/cross_dataset_ensemble/model/MobilenetV3large/expanded_conv_3/depthwise/depthwise"], "attr": {"_grappler_ArithmeticOptimizer_MinimizeBroadcasts": {"b": true}, "T": {"type": "DT_FLOAT"}}}, {"name": "StatefulPartitionedCall/cross_dataset_ensemble/sequential/dense/Relu", "op": "_FusedMatMul", "input": ["StatefulPartitionedCall/cross_dataset_ensemble/sequential/flatten/Reshape", "StatefulPartitionedCall/cross_dataset_ensemble/sequential/dense/MatMul/ReadVariableOp", "StatefulPartitionedCall/cross_dataset_ensemble/sequential/dense/BiasAdd/ReadVariableOp"], "device": "/device:CPU:0", "attr": {"transpose_a": {"b": false}, "_input_shapes": {"list": {"shape": [{"dim": [{"size": "-9"}, {"size": "2304"}]}, {"dim": [{"size": "2304"}, {"size": "512"}]}]}}, "transpose_b": {"b": false}, "fused_ops": {"list": {"s": ["Qmlhc0FkZA==", "UmVsdQ=="]}}, "num_args": {"i": "1"}, "leakyrelu_alpha": {"f": 0.2}, "epsilon": {"f": 0.0}, "T": {"type": "DT_FLOAT"}}}, {"name": "StatefulPartitionedCall/cross_dataset_ensemble/model/MobilenetV3large/expanded_conv_3/project/BatchNorm/FusedBatchNormV3", "op": "_FusedConv2D", "input": ["StatefulPartitionedCall/cross_dataset_ensemble/model/MobilenetV3large/expanded_conv_3/squeeze_excite/Mul/mul", "StatefulPartitionedCall/cross_dataset_ensemble/model/MobilenetV3large/expanded_conv_3/project/Conv2D_weights", "StatefulPartitionedCall/cross_dataset_ensemble/model/MobilenetV3large/expanded_conv_3/project/Conv2D_bn_offset"], "device": "/device:CPU:0", "attr": {"num_host_args": {"i": "0"}, "data_format": {"s": "TkhXQw=="}, "filter_format": {"s": "SFdJTw=="}, "_input_shapes": {"list": {"shape": [{"dim": [{"size": "-4"}, {"size": "-20"}, {"size": "-21"}, {"size": "72"}]}, {"dim": [{"size": "1"}, {"size": "1"}, {"size": "72"}, {"size": "40"}]}]}}, "strides": {"list": {"i": ["1", "1", "1", "1"]}}, "num_args": {"i": "1"}, "fused_ops": {"list": {"s": ["Qmlhc0FkZA=="]}}, "TArgs": {"list": {"type": ["DT_FLOAT"]}}, "padding": {"s": "U0FNRQ=="}, "use_cudnn_on_gpu": {"b": true}, "leakyrelu_alpha": {"f": 0.2}, "epsilon": {"f": 0.0}, "T": {"type": "DT_FLOAT"}, "explicit_paddings": {"list": {}}, "dilations": {"list": {"i": ["1", "1", "1", "1"]}}}}, {"name": "StatefulPartitionedCall/cross_dataset_ensemble/sequential/batch_normalization_7/batchnorm/mul_1", "op": "Mul", "input": ["StatefulPartitionedCall/cross_dataset_ensemble/sequential/dense/Relu", "StatefulPartitionedCall/cross_dataset_ensemble/sequential/batch_normalization_7/batchnorm/mul"], "attr": {"T": {"type": "DT_FLOAT"}}}, {"name": "StatefulPartitionedCall/cross_dataset_ensemble/model/MobilenetV3large/re_lu_9/Relu", "op": "_FusedConv2D", "input": ["StatefulPartitionedCall/cross_dataset_ensemble/model/MobilenetV3large/expanded_conv_3/project/BatchNorm/FusedBatchNormV3", "StatefulPartitionedCall/cross_dataset_ensemble/model/MobilenetV3large/expanded_conv_4/expand/Conv2D_weights", "StatefulPartitionedCall/cross_dataset_ensemble/model/MobilenetV3large/expanded_conv_4/expand/Conv2D_bn_offset"], "device": "/device:CPU:0", "attr": {"num_host_args": {"i": "0"}, "_input_shapes": {"list": {"shape": [{"dim": [{"size": "-4"}, {"size": "-20"}, {"size": "-21"}, {"size": "40"}]}, {"dim": [{"size": "1"}, {"size": "1"}, {"size": "40"}, {"size": "120"}]}]}}, "filter_format": {"s": "SFdJTw=="}, "data_format": {"s": "TkhXQw=="}, "fused_ops": {"list": {"s": ["Qmlhc0FkZA==", "UmVsdQ=="]}}, "num_args": {"i": "1"}, "strides": {"list": {"i": ["1", "1", "1", "1"]}}, "TArgs": {"list": {"type": ["DT_FLOAT"]}}, "padding": {"s": "U0FNRQ=="}, "use_cudnn_on_gpu": {"b": true}, "leakyrelu_alpha": {"f": 0.2}, "epsilon": {"f": 0.0}, "T": {"type": "DT_FLOAT"}, "explicit_paddings": {"list": {}}, "dilations": {"list": {"i": ["1", "1", "1", "1"]}}}}, {"name": "StatefulPartitionedCall/cross_dataset_ensemble/sequential/batch_normalization_7/batchnorm/add_1", "op": "AddV2", "input": ["StatefulPartitionedCall/cross_dataset_ensemble/sequential/batch_normalization_7/batchnorm/mul_1", "StatefulPartitionedCall/cross_dataset_ensemble/sequential/batch_normalization_7/batchnorm/sub"], "attr": {"T": {"type": "DT_FLOAT"}}}, {"name": "StatefulPartitionedCall/cross_dataset_ensemble/model/MobilenetV3large/expanded_conv_4/depthwise/depthwise", "op": "FusedDepthwiseConv2dNative", "input": ["StatefulPartitionedCall/cross_dataset_ensemble/model/MobilenetV3large/re_lu_9/Relu", "StatefulPartitionedCall/cross_dataset_ensemble/model/MobilenetV3large/expanded_conv_4/depthwise/depthwise_weights", "StatefulPartitionedCall/cross_dataset_ensemble/model/MobilenetV3large/expanded_conv_4/depthwise/depthwise_bn_offset"], "attr": {"padding": {"s": "U0FNRQ=="}, "_input_shapes": {"list": {"shape": [{"dim": [{"size": "-4"}, {"size": "-20"}, {"size": "-21"}, {"size": "120"}]}, {"dim": [{"size": "5"}, {"size": "5"}, {"size": "120"}, {"size": "1"}]}]}}, "data_format": {"s": "TkhXQw=="}, "fused_ops": {"list": {"s": ["Qmlhc0FkZA==", "UmVsdQ=="]}}, "num_args": {"i": "1"}, "strides": {"list": {"i": ["1", "1", "1", "1"]}}, "T": {"type": "DT_FLOAT"}, "explicit_paddings": {"list": {}}, "dilations": {"list": {"i": ["1", "1", "1", "1"]}}}}, {"name": "StatefulPartitionedCall/cross_dataset_ensemble/sequential/dense_1/Relu", "op": "_FusedMatMul", "input": ["StatefulPartitionedCall/cross_dataset_ensemble/sequential/batch_normalization_7/batchnorm/add_1", "StatefulPartitionedCall/cross_dataset_ensemble/sequential/dense_1/MatMul/ReadVariableOp", "StatefulPartitionedCall/cross_dataset_ensemble/sequential/dense_1/BiasAdd/ReadVariableOp"], "device": "/device:CPU:0", "attr": {"transpose_a": {"b": false}, "_input_shapes": {"list": {"shape": [{"dim": [{"size": "-9"}, {"size": "512"}]}, {"dim": [{"size": "512"}, {"size": "256"}]}]}}, "transpose_b": {"b": false}, "fused_ops": {"list": {"s": ["Qmlhc0FkZA==", "UmVsdQ=="]}}, "leakyrelu_alpha": {"f": 0.2}, "num_args": {"i": "1"}, "epsilon": {"f": 0.0}, "T": {"type": "DT_FLOAT"}}}, {"name": "StatefulPartitionedCall/cross_dataset_ensemble/sequential/batch_normalization_8/batchnorm/mul_1", "op": "Mul", "input": ["StatefulPartitionedCall/cross_dataset_ensemble/sequential/dense_1/Relu", "StatefulPartitionedCall/cross_dataset_ensemble/sequential/batch_normalization_8/batchnorm/mul"], "attr": {"T": {"type": "DT_FLOAT"}}}, {"name": "StatefulPartitionedCall/cross_dataset_ensemble/sequential/batch_normalization_8/batchnorm/add_1", "op": "AddV2", "input": ["StatefulPartitionedCall/cross_dataset_ensemble/sequential/batch_normalization_8/batchnorm/mul_1", "StatefulPartitionedCall/cross_dataset_ensemble/sequential/batch_normalization_8/batchnorm/sub"], "attr": {"T": {"type": "DT_FLOAT"}}}, {"name": "StatefulPartitionedCall/cross_dataset_ensemble/model/MobilenetV3large/expanded_conv_4/squeeze_excite/AvgPool/Mean", "op": "Mean", "input": ["StatefulPartitionedCall/cross_dataset_ensemble/model/MobilenetV3large/expanded_conv_4/depthwise/depthwise", "StatefulPartitionedCall/cross_dataset_ensemble/model/MobilenetV3large/expanded_conv_4/squeeze_excite/AvgPool/Mean/reduction_indices"], "attr": {"T": {"type": "DT_FLOAT"}, "Tidx": {"type": "DT_INT32"}, "keep_dims": {"b": true}}}, {"name": "StatefulPartitionedCall/cross_dataset_ensemble/sequential/dense_2/BiasAdd", "op": "_FusedMatMul", "input": ["StatefulPartitionedCall/cross_dataset_ensemble/sequential/batch_normalization_8/batchnorm/add_1", "StatefulPartitionedCall/cross_dataset_ensemble/sequential/dense_2/MatMul/ReadVariableOp", "StatefulPartitionedCall/cross_dataset_ensemble/sequential/dense_2/BiasAdd/ReadVariableOp"], "device": "/device:CPU:0", "attr": {"transpose_a": {"b": false}, "_input_shapes": {"list": {"shape": [{"dim": [{"size": "-9"}, {"size": "256"}]}, {"dim": [{"size": "256"}, {"size": "7"}]}]}}, "transpose_b": {"b": false}, "fused_ops": {"list": {"s": ["Qmlhc0FkZA=="]}}, "leakyrelu_alpha": {"f": 0.2}, "num_args": {"i": "1"}, "epsilon": {"f": 0.0}, "T": {"type": "DT_FLOAT"}}}, {"name": "StatefulPartitionedCall/cross_dataset_ensemble/model/MobilenetV3large/expanded_conv_4/squeeze_excite/Relu/Relu", "op": "_FusedConv2D", "input": ["StatefulPartitionedCall/cross_dataset_ensemble/model/MobilenetV3large/expanded_conv_4/squeeze_excite/AvgPool/Mean", "StatefulPartitionedCall/cross_dataset_ensemble/model/MobilenetV3large/expanded_conv_4/squeeze_excite/Conv/Conv2D/ReadVariableOp", "StatefulPartitionedCall/cross_dataset_ensemble/model/MobilenetV3large/expanded_conv_4/squeeze_excite/Conv/BiasAdd/ReadVariableOp"], "device": "/device:CPU:0", "attr": {"num_host_args": {"i": "0"}, "data_format": {"s": "TkhXQw=="}, "filter_format": {"s": "SFdJTw=="}, "_input_shapes": {"list": {"shape": [{"dim": [{"size": "-4"}, {"size": "1"}, {"size": "1"}, {"size": "120"}]}, {"dim": [{"size": "1"}, {"size": "1"}, {"size": "120"}, {"size": "32"}]}]}}, "fused_ops": {"list": {"s": ["Qmlhc0FkZA==", "UmVsdQ=="]}}, "num_args": {"i": "1"}, "strides": {"list": {"i": ["1", "1", "1", "1"]}}, "TArgs": {"list": {"type": ["DT_FLOAT"]}}, "padding": {"s": "U0FNRQ=="}, "use_cudnn_on_gpu": {"b": true}, "leakyrelu_alpha": {"f": 0.2}, "epsilon": {"f": 0.0}, "T": {"type": "DT_FLOAT"}, "explicit_paddings": {"list": {}}, "dilations": {"list": {"i": ["1", "1", "1", "1"]}}}}, {"name": "StatefulPartitionedCall/cross_dataset_ensemble/sequential/dense_2/Softmax", "op": "Softmax", "input": ["StatefulPartitionedCall/cross_dataset_ensemble/sequential/dense_2/BiasAdd"], "attr": {"T": {"type": "DT_FLOAT"}}}, {"name": "StatefulPartitionedCall/cross_dataset_ensemble/model/MobilenetV3large/expanded_conv_4/squeeze_excite/Conv_1/BiasAdd", "op": "_FusedConv2D", "input": ["StatefulPartitionedCall/cross_dataset_ensemble/model/MobilenetV3large/expanded_conv_4/squeeze_excite/Relu/Relu", "StatefulPartitionedCall/cross_dataset_ensemble/model/MobilenetV3large/expanded_conv_4/squeeze_excite/Conv_1/Conv2D/ReadVariableOp", "StatefulPartitionedCall/cross_dataset_ensemble/model/MobilenetV3large/expanded_conv_4/squeeze_excite/Conv_1/BiasAdd/ReadVariableOp"], "device": "/device:CPU:0", "attr": {"num_host_args": {"i": "0"}, "_input_shapes": {"list": {"shape": [{"dim": [{"size": "-4"}, {"size": "1"}, {"size": "1"}, {"size": "32"}]}, {"dim": [{"size": "1"}, {"size": "1"}, {"size": "32"}, {"size": "120"}]}]}}, "filter_format": {"s": "SFdJTw=="}, "data_format": {"s": "TkhXQw=="}, "fused_ops": {"list": {"s": ["Qmlhc0FkZA=="]}}, "num_args": {"i": "1"}, "strides": {"list": {"i": ["1", "1", "1", "1"]}}, "TArgs": {"list": {"type": ["DT_FLOAT"]}}, "padding": {"s": "U0FNRQ=="}, "use_cudnn_on_gpu": {"b": true}, "leakyrelu_alpha": {"f": 0.2}, "epsilon": {"f": 0.0}, "T": {"type": "DT_FLOAT"}, "explicit_paddings": {"list": {}}, "dilations": {"list": {"i": ["1", "1", "1", "1"]}}}}, {"name": "StatefulPartitionedCall/cross_dataset_ensemble/tf.math.multiply_28/Mul", "op": "Mul", "input": ["unknown_323", "StatefulPartitionedCall/cross_dataset_ensemble/sequential/dense_2/Softmax"], "attr": {"T": {"type": "DT_FLOAT"}}}, {"name": "StatefulPartitionedCall/cross_dataset_ensemble/model/MobilenetV3large/tf.__operators__.add_2/AddV2", "op": "AddV2", "input": ["StatefulPartitionedCall/cross_dataset_ensemble/model/MobilenetV3large/expanded_conv_4/squeeze_excite/Conv_1/BiasAdd", "StatefulPartitionedCall/cross_dataset_ensemble/model/MobilenetV3large/tf.__operators__.add_2/y"], "attr": {"T": {"type": "DT_FLOAT"}}}, {"name": "StatefulPartitionedCall/cross_dataset_ensemble/model/MobilenetV3large/re_lu_11/Relu6", "op": "Relu6", "input": ["StatefulPartitionedCall/cross_dataset_ensemble/model/MobilenetV3large/tf.__operators__.add_2/AddV2"], "attr": {"T": {"type": "DT_FLOAT"}}}, {"name": "StatefulPartitionedCall/cross_dataset_ensemble/model/MobilenetV3large/tf.math.multiply_2/Mul", "op": "Mul", "input": ["StatefulPartitionedCall/cross_dataset_ensemble/model/MobilenetV3large/tf.math.multiply_2/Mul/y", "StatefulPartitionedCall/cross_dataset_ensemble/model/MobilenetV3large/re_lu_11/Relu6"], "attr": {"_grappler_ArithmeticOptimizer_MinimizeBroadcasts": {"b": true}, "T": {"type": "DT_FLOAT"}}}, {"name": "StatefulPartitionedCall/cross_dataset_ensemble/model/MobilenetV3large/expanded_conv_4/squeeze_excite/Mul/mul", "op": "Mul", "input": ["StatefulPartitionedCall/cross_dataset_ensemble/model/MobilenetV3large/tf.math.multiply_2/Mul", "StatefulPartitionedCall/cross_dataset_ensemble/model/MobilenetV3large/expanded_conv_4/depthwise/depthwise"], "attr": {"_grappler_ArithmeticOptimizer_MinimizeBroadcasts": {"b": true}, "T": {"type": "DT_FLOAT"}}}, {"name": "StatefulPartitionedCall/cross_dataset_ensemble/model/MobilenetV3large/expanded_conv_4/project/BatchNorm/FusedBatchNormV3", "op": "_FusedConv2D", "input": ["StatefulPartitionedCall/cross_dataset_ensemble/model/MobilenetV3large/expanded_conv_4/squeeze_excite/Mul/mul", "StatefulPartitionedCall/cross_dataset_ensemble/model/MobilenetV3large/expanded_conv_4/project/Conv2D_weights", "StatefulPartitionedCall/cross_dataset_ensemble/model/MobilenetV3large/expanded_conv_4/project/Conv2D_bn_offset"], "device": "/device:CPU:0", "attr": {"num_host_args": {"i": "0"}, "_input_shapes": {"list": {"shape": [{"dim": [{"size": "-4"}, {"size": "-20"}, {"size": "-21"}, {"size": "120"}]}, {"dim": [{"size": "1"}, {"size": "1"}, {"size": "120"}, {"size": "40"}]}]}}, "filter_format": {"s": "SFdJTw=="}, "data_format": {"s": "TkhXQw=="}, "fused_ops": {"list": {"s": ["Qmlhc0FkZA=="]}}, "num_args": {"i": "1"}, "strides": {"list": {"i": ["1", "1", "1", "1"]}}, "TArgs": {"list": {"type": ["DT_FLOAT"]}}, "padding": {"s": "U0FNRQ=="}, "use_cudnn_on_gpu": {"b": true}, "leakyrelu_alpha": {"f": 0.2}, "epsilon": {"f": 0.0}, "T": {"type": "DT_FLOAT"}, "explicit_paddings": {"list": {}}, "dilations": {"list": {"i": ["1", "1", "1", "1"]}}}}, {"name": "StatefulPartitionedCall/cross_dataset_ensemble/model/MobilenetV3large/expanded_conv_4/Add/add", "op": "AddV2", "input": ["StatefulPartitionedCall/cross_dataset_ensemble/model/MobilenetV3large/expanded_conv_3/project/BatchNorm/FusedBatchNormV3", "StatefulPartitionedCall/cross_dataset_ensemble/model/MobilenetV3large/expanded_conv_4/project/BatchNorm/FusedBatchNormV3"], "attr": {"T": {"type": "DT_FLOAT"}}}, {"name": "StatefulPartitionedCall/cross_dataset_ensemble/model/MobilenetV3large/re_lu_12/Relu", "op": "_FusedConv2D", "input": ["StatefulPartitionedCall/cross_dataset_ensemble/model/MobilenetV3large/expanded_conv_4/Add/add", "StatefulPartitionedCall/cross_dataset_ensemble/model/MobilenetV3large/expanded_conv_5/expand/Conv2D_weights", "StatefulPartitionedCall/cross_dataset_ensemble/model/MobilenetV3large/expanded_conv_5/expand/Conv2D_bn_offset"], "device": "/device:CPU:0", "attr": {"num_host_args": {"i": "0"}, "data_format": {"s": "TkhXQw=="}, "filter_format": {"s": "SFdJTw=="}, "_input_shapes": {"list": {"shape": [{"dim": [{"size": "-4"}, {"size": "-20"}, {"size": "-21"}, {"size": "40"}]}, {"dim": [{"size": "1"}, {"size": "1"}, {"size": "40"}, {"size": "120"}]}]}}, "strides": {"list": {"i": ["1", "1", "1", "1"]}}, "num_args": {"i": "1"}, "fused_ops": {"list": {"s": ["Qmlhc0FkZA==", "UmVsdQ=="]}}, "TArgs": {"list": {"type": ["DT_FLOAT"]}}, "padding": {"s": "U0FNRQ=="}, "use_cudnn_on_gpu": {"b": true}, "leakyrelu_alpha": {"f": 0.2}, "epsilon": {"f": 0.0}, "T": {"type": "DT_FLOAT"}, "explicit_paddings": {"list": {}}, "dilations": {"list": {"i": ["1", "1", "1", "1"]}}}}, {"name": "StatefulPartitionedCall/cross_dataset_ensemble/model/MobilenetV3large/expanded_conv_5/depthwise/depthwise", "op": "FusedDepthwiseConv2dNative", "input": ["StatefulPartitionedCall/cross_dataset_ensemble/model/MobilenetV3large/re_lu_12/Relu", "StatefulPartitionedCall/cross_dataset_ensemble/model/MobilenetV3large/expanded_conv_5/depthwise/depthwise_weights", "StatefulPartitionedCall/cross_dataset_ensemble/model/MobilenetV3large/expanded_conv_5/depthwise/depthwise_bn_offset"], "attr": {"padding": {"s": "U0FNRQ=="}, "data_format": {"s": "TkhXQw=="}, "_input_shapes": {"list": {"shape": [{"dim": [{"size": "-4"}, {"size": "-20"}, {"size": "-21"}, {"size": "120"}]}, {"dim": [{"size": "5"}, {"size": "5"}, {"size": "120"}, {"size": "1"}]}]}}, "fused_ops": {"list": {"s": ["Qmlhc0FkZA==", "UmVsdQ=="]}}, "num_args": {"i": "1"}, "strides": {"list": {"i": ["1", "1", "1", "1"]}}, "T": {"type": "DT_FLOAT"}, "explicit_paddings": {"list": {}}, "dilations": {"list": {"i": ["1", "1", "1", "1"]}}}}, {"name": "StatefulPartitionedCall/cross_dataset_ensemble/model/MobilenetV3large/expanded_conv_5/squeeze_excite/AvgPool/Mean", "op": "Mean", "input": ["StatefulPartitionedCall/cross_dataset_ensemble/model/MobilenetV3large/expanded_conv_5/depthwise/depthwise", "StatefulPartitionedCall/cross_dataset_ensemble/model/MobilenetV3large/expanded_conv_5/squeeze_excite/AvgPool/Mean/reduction_indices"], "attr": {"Tidx": {"type": "DT_INT32"}, "T": {"type": "DT_FLOAT"}, "keep_dims": {"b": true}}}, {"name": "StatefulPartitionedCall/cross_dataset_ensemble/model/MobilenetV3large/expanded_conv_5/squeeze_excite/Relu/Relu", "op": "_FusedConv2D", "input": ["StatefulPartitionedCall/cross_dataset_ensemble/model/MobilenetV3large/expanded_conv_5/squeeze_excite/AvgPool/Mean", "StatefulPartitionedCall/cross_dataset_ensemble/model/MobilenetV3large/expanded_conv_5/squeeze_excite/Conv/Conv2D/ReadVariableOp", "StatefulPartitionedCall/cross_dataset_ensemble/model/MobilenetV3large/expanded_conv_5/squeeze_excite/Conv/BiasAdd/ReadVariableOp"], "device": "/device:CPU:0", "attr": {"num_host_args": {"i": "0"}, "_input_shapes": {"list": {"shape": [{"dim": [{"size": "-4"}, {"size": "1"}, {"size": "1"}, {"size": "120"}]}, {"dim": [{"size": "1"}, {"size": "1"}, {"size": "120"}, {"size": "32"}]}]}}, "filter_format": {"s": "SFdJTw=="}, "data_format": {"s": "TkhXQw=="}, "fused_ops": {"list": {"s": ["Qmlhc0FkZA==", "UmVsdQ=="]}}, "num_args": {"i": "1"}, "strides": {"list": {"i": ["1", "1", "1", "1"]}}, "TArgs": {"list": {"type": ["DT_FLOAT"]}}, "padding": {"s": "U0FNRQ=="}, "use_cudnn_on_gpu": {"b": true}, "leakyrelu_alpha": {"f": 0.2}, "epsilon": {"f": 0.0}, "T": {"type": "DT_FLOAT"}, "explicit_paddings": {"list": {}}, "dilations": {"list": {"i": ["1", "1", "1", "1"]}}}}, {"name": "StatefulPartitionedCall/cross_dataset_ensemble/model/MobilenetV3large/expanded_conv_5/squeeze_excite/Conv_1/BiasAdd", "op": "_FusedConv2D", "input": ["StatefulPartitionedCall/cross_dataset_ensemble/model/MobilenetV3large/expanded_conv_5/squeeze_excite/Relu/Relu", "StatefulPartitionedCall/cross_dataset_ensemble/model/MobilenetV3large/expanded_conv_5/squeeze_excite/Conv_1/Conv2D/ReadVariableOp", "StatefulPartitionedCall/cross_dataset_ensemble/model/MobilenetV3large/expanded_conv_5/squeeze_excite/Conv_1/BiasAdd/ReadVariableOp"], "device": "/device:CPU:0", "attr": {"num_host_args": {"i": "0"}, "data_format": {"s": "TkhXQw=="}, "filter_format": {"s": "SFdJTw=="}, "_input_shapes": {"list": {"shape": [{"dim": [{"size": "-4"}, {"size": "1"}, {"size": "1"}, {"size": "32"}]}, {"dim": [{"size": "1"}, {"size": "1"}, {"size": "32"}, {"size": "120"}]}]}}, "strides": {"list": {"i": ["1", "1", "1", "1"]}}, "num_args": {"i": "1"}, "fused_ops": {"list": {"s": ["Qmlhc0FkZA=="]}}, "TArgs": {"list": {"type": ["DT_FLOAT"]}}, "padding": {"s": "U0FNRQ=="}, "use_cudnn_on_gpu": {"b": true}, "leakyrelu_alpha": {"f": 0.2}, "epsilon": {"f": 0.0}, "T": {"type": "DT_FLOAT"}, "explicit_paddings": {"list": {}}, "dilations": {"list": {"i": ["1", "1", "1", "1"]}}}}, {"name": "StatefulPartitionedCall/cross_dataset_ensemble/model/MobilenetV3large/tf.__operators__.add_3/AddV2", "op": "AddV2", "input": ["StatefulPartitionedCall/cross_dataset_ensemble/model/MobilenetV3large/expanded_conv_5/squeeze_excite/Conv_1/BiasAdd", "StatefulPartitionedCall/cross_dataset_ensemble/model/MobilenetV3large/tf.__operators__.add_3/y"], "attr": {"T": {"type": "DT_FLOAT"}}}, {"name": "StatefulPartitionedCall/cross_dataset_ensemble/model/MobilenetV3large/re_lu_14/Relu6", "op": "Relu6", "input": ["StatefulPartitionedCall/cross_dataset_ensemble/model/MobilenetV3large/tf.__operators__.add_3/AddV2"], "attr": {"T": {"type": "DT_FLOAT"}}}, {"name": "StatefulPartitionedCall/cross_dataset_ensemble/model/MobilenetV3large/tf.math.multiply_3/Mul", "op": "Mul", "input": ["StatefulPartitionedCall/cross_dataset_ensemble/model/MobilenetV3large/tf.math.multiply_3/Mul/y", "StatefulPartitionedCall/cross_dataset_ensemble/model/MobilenetV3large/re_lu_14/Relu6"], "attr": {"_grappler_ArithmeticOptimizer_MinimizeBroadcasts": {"b": true}, "T": {"type": "DT_FLOAT"}}}, {"name": "StatefulPartitionedCall/cross_dataset_ensemble/model/MobilenetV3large/expanded_conv_5/squeeze_excite/Mul/mul", "op": "Mul", "input": ["StatefulPartitionedCall/cross_dataset_ensemble/model/MobilenetV3large/tf.math.multiply_3/Mul", "StatefulPartitionedCall/cross_dataset_ensemble/model/MobilenetV3large/expanded_conv_5/depthwise/depthwise"], "attr": {"_grappler_ArithmeticOptimizer_MinimizeBroadcasts": {"b": true}, "T": {"type": "DT_FLOAT"}}}, {"name": "StatefulPartitionedCall/cross_dataset_ensemble/model/MobilenetV3large/expanded_conv_5/project/BatchNorm/FusedBatchNormV3", "op": "_FusedConv2D", "input": ["StatefulPartitionedCall/cross_dataset_ensemble/model/MobilenetV3large/expanded_conv_5/squeeze_excite/Mul/mul", "StatefulPartitionedCall/cross_dataset_ensemble/model/MobilenetV3large/expanded_conv_5/project/Conv2D_weights", "StatefulPartitionedCall/cross_dataset_ensemble/model/MobilenetV3large/expanded_conv_5/project/Conv2D_bn_offset"], "device": "/device:CPU:0", "attr": {"num_host_args": {"i": "0"}, "data_format": {"s": "TkhXQw=="}, "filter_format": {"s": "SFdJTw=="}, "_input_shapes": {"list": {"shape": [{"dim": [{"size": "-4"}, {"size": "-20"}, {"size": "-21"}, {"size": "120"}]}, {"dim": [{"size": "1"}, {"size": "1"}, {"size": "120"}, {"size": "40"}]}]}}, "fused_ops": {"list": {"s": ["Qmlhc0FkZA=="]}}, "num_args": {"i": "1"}, "strides": {"list": {"i": ["1", "1", "1", "1"]}}, "TArgs": {"list": {"type": ["DT_FLOAT"]}}, "padding": {"s": "U0FNRQ=="}, "use_cudnn_on_gpu": {"b": true}, "leakyrelu_alpha": {"f": 0.2}, "epsilon": {"f": 0.0}, "T": {"type": "DT_FLOAT"}, "explicit_paddings": {"list": {}}, "dilations": {"list": {"i": ["1", "1", "1", "1"]}}}}, {"name": "StatefulPartitionedCall/cross_dataset_ensemble/model/MobilenetV3large/expanded_conv_5/Add/add", "op": "AddV2", "input": ["StatefulPartitionedCall/cross_dataset_ensemble/model/MobilenetV3large/expanded_conv_4/Add/add", "StatefulPartitionedCall/cross_dataset_ensemble/model/MobilenetV3large/expanded_conv_5/project/BatchNorm/FusedBatchNormV3"], "attr": {"T": {"type": "DT_FLOAT"}}}, {"name": "StatefulPartitionedCall/cross_dataset_ensemble/model/MobilenetV3large/expanded_conv_6/expand/BatchNorm/FusedBatchNormV3", "op": "_FusedConv2D", "input": ["StatefulPartitionedCall/cross_dataset_ensemble/model/MobilenetV3large/expanded_conv_5/Add/add", "StatefulPartitionedCall/cross_dataset_ensemble/model/MobilenetV3large/expanded_conv_6/expand/Conv2D_weights", "StatefulPartitionedCall/cross_dataset_ensemble/model/MobilenetV3large/expanded_conv_6/expand/Conv2D_bn_offset"], "device": "/device:CPU:0", "attr": {"num_host_args": {"i": "0"}, "data_format": {"s": "TkhXQw=="}, "filter_format": {"s": "SFdJTw=="}, "_input_shapes": {"list": {"shape": [{"dim": [{"size": "-4"}, {"size": "-20"}, {"size": "-21"}, {"size": "40"}]}, {"dim": [{"size": "1"}, {"size": "1"}, {"size": "40"}, {"size": "240"}]}]}}, "strides": {"list": {"i": ["1", "1", "1", "1"]}}, "num_args": {"i": "1"}, "fused_ops": {"list": {"s": ["Qmlhc0FkZA=="]}}, "TArgs": {"list": {"type": ["DT_FLOAT"]}}, "padding": {"s": "U0FNRQ=="}, "use_cudnn_on_gpu": {"b": true}, "leakyrelu_alpha": {"f": 0.2}, "epsilon": {"f": 0.0}, "T": {"type": "DT_FLOAT"}, "explicit_paddings": {"list": {}}, "dilations": {"list": {"i": ["1", "1", "1", "1"]}}}}, {"name": "StatefulPartitionedCall/cross_dataset_ensemble/model/MobilenetV3large/tf.math.multiply_4/Mul", "op": "Mul", "input": ["StatefulPartitionedCall/cross_dataset_ensemble/model/MobilenetV3large/tf.math.multiply_4/Mul/y", "StatefulPartitionedCall/cross_dataset_ensemble/model/MobilenetV3large/expanded_conv_6/expand/BatchNorm/FusedBatchNormV3"], "attr": {"_grappler_ArithmeticOptimizer_MinimizeBroadcasts": {"b": true}, "T": {"type": "DT_FLOAT"}}}, {"name": "StatefulPartitionedCall/cross_dataset_ensemble/model/MobilenetV3large/tf.__operators__.add_4/AddV2", "op": "AddV2", "input": ["StatefulPartitionedCall/cross_dataset_ensemble/model/MobilenetV3large/expanded_conv_6/expand/BatchNorm/FusedBatchNormV3", "StatefulPartitionedCall/cross_dataset_ensemble/model/MobilenetV3large/tf.__operators__.add_4/y"], "attr": {"T": {"type": "DT_FLOAT"}}}, {"name": "StatefulPartitionedCall/cross_dataset_ensemble/model/MobilenetV3large/re_lu_15/Relu6", "op": "Relu6", "input": ["StatefulPartitionedCall/cross_dataset_ensemble/model/MobilenetV3large/tf.__operators__.add_4/AddV2"], "attr": {"T": {"type": "DT_FLOAT"}}}, {"name": "StatefulPartitionedCall/cross_dataset_ensemble/model/MobilenetV3large/multiply_1/mul", "op": "Mul", "input": ["StatefulPartitionedCall/cross_dataset_ensemble/model/MobilenetV3large/tf.math.multiply_4/Mul", "StatefulPartitionedCall/cross_dataset_ensemble/model/MobilenetV3large/re_lu_15/Relu6"], "attr": {"_grappler_ArithmeticOptimizer_MinimizeBroadcasts": {"b": true}, "T": {"type": "DT_FLOAT"}}}, {"name": "StatefulPartitionedCall/cross_dataset_ensemble/model/MobilenetV3large/expanded_conv_6/depthwise/pad/Pad", "op": "Pad", "input": ["StatefulPartitionedCall/cross_dataset_ensemble/model/MobilenetV3large/multiply_1/mul", "StatefulPartitionedCall/cross_dataset_ensemble/model/MobilenetV3large/expanded_conv_6/depthwise/pad/Pad/paddings"], "attr": {"Tpaddings": {"type": "DT_INT32"}, "T": {"type": "DT_FLOAT"}}}, {"name": "StatefulPartitionedCall/cross_dataset_ensemble/model/MobilenetV3large/expanded_conv_6/depthwise/depthwise", "op": "FusedDepthwiseConv2dNative", "input": ["StatefulPartitionedCall/cross_dataset_ensemble/model/MobilenetV3large/expanded_conv_6/depthwise/pad/Pad", "StatefulPartitionedCall/cross_dataset_ensemble/model/MobilenetV3large/expanded_conv_6/depthwise/depthwise_weights", "StatefulPartitionedCall/cross_dataset_ensemble/model/MobilenetV3large/expanded_conv_6/depthwise/depthwise_bn_offset"], "attr": {"padding": {"s": "VkFMSUQ="}, "_input_shapes": {"list": {"shape": [{"dim": [{"size": "-4"}, {"size": "-22"}, {"size": "-23"}, {"size": "240"}]}, {"dim": [{"size": "3"}, {"size": "3"}, {"size": "240"}, {"size": "1"}]}]}}, "data_format": {"s": "TkhXQw=="}, "strides": {"list": {"i": ["1", "2", "2", "1"]}}, "num_args": {"i": "1"}, "fused_ops": {"list": {"s": ["Qmlhc0FkZA=="]}}, "T": {"type": "DT_FLOAT"}, "explicit_paddings": {"list": {}}, "dilations": {"list": {"i": ["1", "1", "1", "1"]}}}}, {"name": "StatefulPartitionedCall/cross_dataset_ensemble/model/MobilenetV3large/tf.math.multiply_5/Mul", "op": "Mul", "input": ["StatefulPartitionedCall/cross_dataset_ensemble/model/MobilenetV3large/tf.math.multiply_5/Mul/y", "StatefulPartitionedCall/cross_dataset_ensemble/model/MobilenetV3large/expanded_conv_6/depthwise/depthwise"], "attr": {"_grappler_ArithmeticOptimizer_MinimizeBroadcasts": {"b": true}, "T": {"type": "DT_FLOAT"}}}, {"name": "StatefulPartitionedCall/cross_dataset_ensemble/model/MobilenetV3large/tf.__operators__.add_5/AddV2", "op": "AddV2", "input": ["StatefulPartitionedCall/cross_dataset_ensemble/model/MobilenetV3large/expanded_conv_6/depthwise/depthwise", "StatefulPartitionedCall/cross_dataset_ensemble/model/MobilenetV3large/tf.__operators__.add_5/y"], "attr": {"T": {"type": "DT_FLOAT"}}}, {"name": "StatefulPartitionedCall/cross_dataset_ensemble/model/MobilenetV3large/re_lu_16/Relu6", "op": "Relu6", "input": ["StatefulPartitionedCall/cross_dataset_ensemble/model/MobilenetV3large/tf.__operators__.add_5/AddV2"], "attr": {"T": {"type": "DT_FLOAT"}}}, {"name": "StatefulPartitionedCall/cross_dataset_ensemble/model/MobilenetV3large/multiply_2/mul", "op": "Mul", "input": ["StatefulPartitionedCall/cross_dataset_ensemble/model/MobilenetV3large/tf.math.multiply_5/Mul", "StatefulPartitionedCall/cross_dataset_ensemble/model/MobilenetV3large/re_lu_16/Relu6"], "attr": {"_grappler_ArithmeticOptimizer_MinimizeBroadcasts": {"b": true}, "T": {"type": "DT_FLOAT"}}}, {"name": "StatefulPartitionedCall/cross_dataset_ensemble/model/MobilenetV3large/expanded_conv_6/project/BatchNorm/FusedBatchNormV3", "op": "_FusedConv2D", "input": ["StatefulPartitionedCall/cross_dataset_ensemble/model/MobilenetV3large/multiply_2/mul", "StatefulPartitionedCall/cross_dataset_ensemble/model/MobilenetV3large/expanded_conv_6/project/Conv2D_weights", "StatefulPartitionedCall/cross_dataset_ensemble/model/MobilenetV3large/expanded_conv_6/project/Conv2D_bn_offset"], "device": "/device:CPU:0", "attr": {"num_host_args": {"i": "0"}, "data_format": {"s": "TkhXQw=="}, "filter_format": {"s": "SFdJTw=="}, "_input_shapes": {"list": {"shape": [{"dim": [{"size": "-4"}, {"size": "-24"}, {"size": "-25"}, {"size": "240"}]}, {"dim": [{"size": "1"}, {"size": "1"}, {"size": "240"}, {"size": "80"}]}]}}, "strides": {"list": {"i": ["1", "1", "1", "1"]}}, "num_args": {"i": "1"}, "fused_ops": {"list": {"s": ["Qmlhc0FkZA=="]}}, "TArgs": {"list": {"type": ["DT_FLOAT"]}}, "padding": {"s": "U0FNRQ=="}, "use_cudnn_on_gpu": {"b": true}, "leakyrelu_alpha": {"f": 0.2}, "epsilon": {"f": 0.0}, "T": {"type": "DT_FLOAT"}, "explicit_paddings": {"list": {}}, "dilations": {"list": {"i": ["1", "1", "1", "1"]}}}}, {"name": "StatefulPartitionedCall/cross_dataset_ensemble/model/MobilenetV3large/expanded_conv_7/expand/BatchNorm/FusedBatchNormV3", "op": "_FusedConv2D", "input": ["StatefulPartitionedCall/cross_dataset_ensemble/model/MobilenetV3large/expanded_conv_6/project/BatchNorm/FusedBatchNormV3", "StatefulPartitionedCall/cross_dataset_ensemble/model/MobilenetV3large/expanded_conv_7/expand/Conv2D_weights", "StatefulPartitionedCall/cross_dataset_ensemble/model/MobilenetV3large/expanded_conv_7/expand/Conv2D_bn_offset"], "device": "/device:CPU:0", "attr": {"num_host_args": {"i": "0"}, "_input_shapes": {"list": {"shape": [{"dim": [{"size": "-4"}, {"size": "-24"}, {"size": "-25"}, {"size": "80"}]}, {"dim": [{"size": "1"}, {"size": "1"}, {"size": "80"}, {"size": "200"}]}]}}, "filter_format": {"s": "SFdJTw=="}, "data_format": {"s": "TkhXQw=="}, "strides": {"list": {"i": ["1", "1", "1", "1"]}}, "num_args": {"i": "1"}, "fused_ops": {"list": {"s": ["Qmlhc0FkZA=="]}}, "TArgs": {"list": {"type": ["DT_FLOAT"]}}, "padding": {"s": "U0FNRQ=="}, "use_cudnn_on_gpu": {"b": true}, "leakyrelu_alpha": {"f": 0.2}, "epsilon": {"f": 0.0}, "T": {"type": "DT_FLOAT"}, "explicit_paddings": {"list": {}}, "dilations": {"list": {"i": ["1", "1", "1", "1"]}}}}, {"name": "StatefulPartitionedCall/cross_dataset_ensemble/model/MobilenetV3large/tf.math.multiply_6/Mul", "op": "Mul", "input": ["StatefulPartitionedCall/cross_dataset_ensemble/model/MobilenetV3large/tf.math.multiply_6/Mul/y", "StatefulPartitionedCall/cross_dataset_ensemble/model/MobilenetV3large/expanded_conv_7/expand/BatchNorm/FusedBatchNormV3"], "attr": {"_grappler_ArithmeticOptimizer_MinimizeBroadcasts": {"b": true}, "T": {"type": "DT_FLOAT"}}}, {"name": "StatefulPartitionedCall/cross_dataset_ensemble/model/MobilenetV3large/tf.__operators__.add_6/AddV2", "op": "AddV2", "input": ["StatefulPartitionedCall/cross_dataset_ensemble/model/MobilenetV3large/expanded_conv_7/expand/BatchNorm/FusedBatchNormV3", "StatefulPartitionedCall/cross_dataset_ensemble/model/MobilenetV3large/tf.__operators__.add_6/y"], "attr": {"T": {"type": "DT_FLOAT"}}}, {"name": "StatefulPartitionedCall/cross_dataset_ensemble/model/MobilenetV3large/re_lu_17/Relu6", "op": "Relu6", "input": ["StatefulPartitionedCall/cross_dataset_ensemble/model/MobilenetV3large/tf.__operators__.add_6/AddV2"], "attr": {"T": {"type": "DT_FLOAT"}}}, {"name": "StatefulPartitionedCall/cross_dataset_ensemble/model/MobilenetV3large/multiply_3/mul", "op": "Mul", "input": ["StatefulPartitionedCall/cross_dataset_ensemble/model/MobilenetV3large/tf.math.multiply_6/Mul", "StatefulPartitionedCall/cross_dataset_ensemble/model/MobilenetV3large/re_lu_17/Relu6"], "attr": {"_grappler_ArithmeticOptimizer_MinimizeBroadcasts": {"b": true}, "T": {"type": "DT_FLOAT"}}}, {"name": "StatefulPartitionedCall/cross_dataset_ensemble/model/MobilenetV3large/expanded_conv_7/depthwise/depthwise", "op": "FusedDepthwiseConv2dNative", "input": ["StatefulPartitionedCall/cross_dataset_ensemble/model/MobilenetV3large/multiply_3/mul", "StatefulPartitionedCall/cross_dataset_ensemble/model/MobilenetV3large/expanded_conv_7/depthwise/depthwise_weights", "StatefulPartitionedCall/cross_dataset_ensemble/model/MobilenetV3large/expanded_conv_7/depthwise/depthwise_bn_offset"], "attr": {"padding": {"s": "U0FNRQ=="}, "data_format": {"s": "TkhXQw=="}, "_input_shapes": {"list": {"shape": [{"dim": [{"size": "-4"}, {"size": "-24"}, {"size": "-25"}, {"size": "200"}]}, {"dim": [{"size": "3"}, {"size": "3"}, {"size": "200"}, {"size": "1"}]}]}}, "strides": {"list": {"i": ["1", "1", "1", "1"]}}, "num_args": {"i": "1"}, "fused_ops": {"list": {"s": ["Qmlhc0FkZA=="]}}, "T": {"type": "DT_FLOAT"}, "explicit_paddings": {"list": {}}, "dilations": {"list": {"i": ["1", "1", "1", "1"]}}}}, {"name": "StatefulPartitionedCall/cross_dataset_ensemble/model/MobilenetV3large/tf.math.multiply_7/Mul", "op": "Mul", "input": ["StatefulPartitionedCall/cross_dataset_ensemble/model/MobilenetV3large/tf.math.multiply_7/Mul/y", "StatefulPartitionedCall/cross_dataset_ensemble/model/MobilenetV3large/expanded_conv_7/depthwise/depthwise"], "attr": {"_grappler_ArithmeticOptimizer_MinimizeBroadcasts": {"b": true}, "T": {"type": "DT_FLOAT"}}}, {"name": "StatefulPartitionedCall/cross_dataset_ensemble/model/MobilenetV3large/tf.__operators__.add_7/AddV2", "op": "AddV2", "input": ["StatefulPartitionedCall/cross_dataset_ensemble/model/MobilenetV3large/expanded_conv_7/depthwise/depthwise", "StatefulPartitionedCall/cross_dataset_ensemble/model/MobilenetV3large/tf.__operators__.add_7/y"], "attr": {"T": {"type": "DT_FLOAT"}}}, {"name": "StatefulPartitionedCall/cross_dataset_ensemble/model/MobilenetV3large/re_lu_18/Relu6", "op": "Relu6", "input": ["StatefulPartitionedCall/cross_dataset_ensemble/model/MobilenetV3large/tf.__operators__.add_7/AddV2"], "attr": {"T": {"type": "DT_FLOAT"}}}, {"name": "StatefulPartitionedCall/cross_dataset_ensemble/model/MobilenetV3large/multiply_4/mul", "op": "Mul", "input": ["StatefulPartitionedCall/cross_dataset_ensemble/model/MobilenetV3large/tf.math.multiply_7/Mul", "StatefulPartitionedCall/cross_dataset_ensemble/model/MobilenetV3large/re_lu_18/Relu6"], "attr": {"_grappler_ArithmeticOptimizer_MinimizeBroadcasts": {"b": true}, "T": {"type": "DT_FLOAT"}}}, {"name": "StatefulPartitionedCall/cross_dataset_ensemble/model/MobilenetV3large/expanded_conv_7/project/BatchNorm/FusedBatchNormV3", "op": "_FusedConv2D", "input": ["StatefulPartitionedCall/cross_dataset_ensemble/model/MobilenetV3large/multiply_4/mul", "StatefulPartitionedCall/cross_dataset_ensemble/model/MobilenetV3large/expanded_conv_7/project/Conv2D_weights", "StatefulPartitionedCall/cross_dataset_ensemble/model/MobilenetV3large/expanded_conv_7/project/Conv2D_bn_offset"], "device": "/device:CPU:0", "attr": {"num_host_args": {"i": "0"}, "_input_shapes": {"list": {"shape": [{"dim": [{"size": "-4"}, {"size": "-24"}, {"size": "-25"}, {"size": "200"}]}, {"dim": [{"size": "1"}, {"size": "1"}, {"size": "200"}, {"size": "80"}]}]}}, "filter_format": {"s": "SFdJTw=="}, "data_format": {"s": "TkhXQw=="}, "fused_ops": {"list": {"s": ["Qmlhc0FkZA=="]}}, "num_args": {"i": "1"}, "strides": {"list": {"i": ["1", "1", "1", "1"]}}, "TArgs": {"list": {"type": ["DT_FLOAT"]}}, "padding": {"s": "U0FNRQ=="}, "use_cudnn_on_gpu": {"b": true}, "leakyrelu_alpha": {"f": 0.2}, "epsilon": {"f": 0.0}, "T": {"type": "DT_FLOAT"}, "explicit_paddings": {"list": {}}, "dilations": {"list": {"i": ["1", "1", "1", "1"]}}}}, {"name": "StatefulPartitionedCall/cross_dataset_ensemble/model/MobilenetV3large/expanded_conv_7/Add/add", "op": "AddV2", "input": ["StatefulPartitionedCall/cross_dataset_ensemble/model/MobilenetV3large/expanded_conv_6/project/BatchNorm/FusedBatchNormV3", "StatefulPartitionedCall/cross_dataset_ensemble/model/MobilenetV3large/expanded_conv_7/project/BatchNorm/FusedBatchNormV3"], "attr": {"T": {"type": "DT_FLOAT"}}}, {"name": "StatefulPartitionedCall/cross_dataset_ensemble/model/MobilenetV3large/expanded_conv_8/expand/BatchNorm/FusedBatchNormV3", "op": "_FusedConv2D", "input": ["StatefulPartitionedCall/cross_dataset_ensemble/model/MobilenetV3large/expanded_conv_7/Add/add", "StatefulPartitionedCall/cross_dataset_ensemble/model/MobilenetV3large/expanded_conv_8/expand/Conv2D_weights", "StatefulPartitionedCall/cross_dataset_ensemble/model/MobilenetV3large/expanded_conv_8/expand/Conv2D_bn_offset"], "device": "/device:CPU:0", "attr": {"num_host_args": {"i": "0"}, "data_format": {"s": "TkhXQw=="}, "filter_format": {"s": "SFdJTw=="}, "_input_shapes": {"list": {"shape": [{"dim": [{"size": "-4"}, {"size": "-24"}, {"size": "-25"}, {"size": "80"}]}, {"dim": [{"size": "1"}, {"size": "1"}, {"size": "80"}, {"size": "184"}]}]}}, "strides": {"list": {"i": ["1", "1", "1", "1"]}}, "num_args": {"i": "1"}, "fused_ops": {"list": {"s": ["Qmlhc0FkZA=="]}}, "TArgs": {"list": {"type": ["DT_FLOAT"]}}, "padding": {"s": "U0FNRQ=="}, "use_cudnn_on_gpu": {"b": true}, "leakyrelu_alpha": {"f": 0.2}, "epsilon": {"f": 0.0}, "T": {"type": "DT_FLOAT"}, "explicit_paddings": {"list": {}}, "dilations": {"list": {"i": ["1", "1", "1", "1"]}}}}, {"name": "StatefulPartitionedCall/cross_dataset_ensemble/model/MobilenetV3large/tf.math.multiply_8/Mul", "op": "Mul", "input": ["StatefulPartitionedCall/cross_dataset_ensemble/model/MobilenetV3large/tf.math.multiply_8/Mul/y", "StatefulPartitionedCall/cross_dataset_ensemble/model/MobilenetV3large/expanded_conv_8/expand/BatchNorm/FusedBatchNormV3"], "attr": {"_grappler_ArithmeticOptimizer_MinimizeBroadcasts": {"b": true}, "T": {"type": "DT_FLOAT"}}}, {"name": "StatefulPartitionedCall/cross_dataset_ensemble/model/MobilenetV3large/tf.__operators__.add_8/AddV2", "op": "AddV2", "input": ["StatefulPartitionedCall/cross_dataset_ensemble/model/MobilenetV3large/expanded_conv_8/expand/BatchNorm/FusedBatchNormV3", "StatefulPartitionedCall/cross_dataset_ensemble/model/MobilenetV3large/tf.__operators__.add_8/y"], "attr": {"T": {"type": "DT_FLOAT"}}}, {"name": "StatefulPartitionedCall/cross_dataset_ensemble/model/MobilenetV3large/re_lu_19/Relu6", "op": "Relu6", "input": ["StatefulPartitionedCall/cross_dataset_ensemble/model/MobilenetV3large/tf.__operators__.add_8/AddV2"], "attr": {"T": {"type": "DT_FLOAT"}}}, {"name": "StatefulPartitionedCall/cross_dataset_ensemble/model/MobilenetV3large/multiply_5/mul", "op": "Mul", "input": ["StatefulPartitionedCall/cross_dataset_ensemble/model/MobilenetV3large/tf.math.multiply_8/Mul", "StatefulPartitionedCall/cross_dataset_ensemble/model/MobilenetV3large/re_lu_19/Relu6"], "attr": {"_grappler_ArithmeticOptimizer_MinimizeBroadcasts": {"b": true}, "T": {"type": "DT_FLOAT"}}}, {"name": "StatefulPartitionedCall/cross_dataset_ensemble/model/MobilenetV3large/expanded_conv_8/depthwise/depthwise", "op": "FusedDepthwiseConv2dNative", "input": ["StatefulPartitionedCall/cross_dataset_ensemble/model/MobilenetV3large/multiply_5/mul", "StatefulPartitionedCall/cross_dataset_ensemble/model/MobilenetV3large/expanded_conv_8/depthwise/depthwise_weights", "StatefulPartitionedCall/cross_dataset_ensemble/model/MobilenetV3large/expanded_conv_8/depthwise/depthwise_bn_offset"], "attr": {"padding": {"s": "U0FNRQ=="}, "data_format": {"s": "TkhXQw=="}, "_input_shapes": {"list": {"shape": [{"dim": [{"size": "-4"}, {"size": "-24"}, {"size": "-25"}, {"size": "184"}]}, {"dim": [{"size": "3"}, {"size": "3"}, {"size": "184"}, {"size": "1"}]}]}}, "strides": {"list": {"i": ["1", "1", "1", "1"]}}, "num_args": {"i": "1"}, "fused_ops": {"list": {"s": ["Qmlhc0FkZA=="]}}, "T": {"type": "DT_FLOAT"}, "explicit_paddings": {"list": {}}, "dilations": {"list": {"i": ["1", "1", "1", "1"]}}}}, {"name": "StatefulPartitionedCall/cross_dataset_ensemble/model/MobilenetV3l…
: "1"}, {"size": "240"}, {"size": "960"}]}]}}, "filter_format": {"s": "SFdJTw=="}, "data_format": {"s": "TkhXQw=="}, "strides": {"list": {"i": ["1", "1", "1", "1"]}}, "num_args": {"i": "1"}, "fused_ops": {"list": {"s": ["Qmlhc0FkZA=="]}}, "TArgs": {"list": {"type": ["DT_FLOAT"]}}, "padding": {"s": "U0FNRQ=="}, "use_cudnn_on_gpu": {"b": true}, "leakyrelu_alpha": {"f": 0.2}, "epsilon": {"f": 0.0}, "T": {"type": "DT_FLOAT"}, "explicit_paddings": {"list": {}}, "dilations": {"list": {"i": ["1", "1", "1", "1"]}}}}, {"name": "StatefulPartitionedCall/cross_dataset_ensemble/model/MobilenetV3large/tf.__operators__.add_26/AddV2", "op": "AddV2", "input": ["StatefulPartitionedCall/cross_dataset_ensemble/model/MobilenetV3large/expanded_conv_14/squeeze_excite/Conv_1/BiasAdd", "StatefulPartitionedCall/cross_dataset_ensemble/model/MobilenetV3large/tf.__operators__.add_26/y"], "attr": {"T": {"type": "DT_FLOAT"}}}, {"name": "StatefulPartitionedCall/cross_dataset_ensemble/model/MobilenetV3large/re_lu_37/Relu6", "op": "Relu6", "input": ["StatefulPartitionedCall/cross_dataset_ensemble/model/MobilenetV3large/tf.__operators__.add_26/AddV2"], "attr": {"T": {"type": "DT_FLOAT"}}}, {"name": "StatefulPartitionedCall/cross_dataset_ensemble/model/MobilenetV3large/tf.math.multiply_26/Mul", "op": "Mul", "input": ["StatefulPartitionedCall/cross_dataset_ensemble/model/MobilenetV3large/tf.math.multiply_26/Mul/y", "StatefulPartitionedCall/cross_dataset_ensemble/model/MobilenetV3large/re_lu_37/Relu6"], "attr": {"_grappler_ArithmeticOptimizer_MinimizeBroadcasts": {"b": true}, "T": {"type": "DT_FLOAT"}}}, {"name": "StatefulPartitionedCall/cross_dataset_ensemble/model/MobilenetV3large/expanded_conv_14/squeeze_excite/Mul/mul", "op": "Mul", "input": ["StatefulPartitionedCall/cross_dataset_ensemble/model/MobilenetV3large/tf.math.multiply_26/Mul", "StatefulPartitionedCall/cross_dataset_ensemble/model/MobilenetV3large/multiply_18/mul"], "attr": {"_grappler_ArithmeticOptimizer_MinimizeBroadcasts": {"b": true}, "T": {"type": "DT_FLOAT"}}}, {"name": "StatefulPartitionedCall/cross_dataset_ensemble/model/MobilenetV3large/expanded_conv_14/project/BatchNorm/FusedBatchNormV3", "op": "_FusedConv2D", "input": ["StatefulPartitionedCall/cross_dataset_ensemble/model/MobilenetV3large/expanded_conv_14/squeeze_excite/Mul/mul", "StatefulPartitionedCall/cross_dataset_ensemble/model/MobilenetV3large/expanded_conv_14/project/Conv2D_weights", "StatefulPartitionedCall/cross_dataset_ensemble/model/MobilenetV3large/expanded_conv_14/project/Conv2D_bn_offset"], "device": "/device:CPU:0", "attr": {"num_host_args": {"i": "0"}, "_input_shapes": {"list": {"shape": [{"dim": [{"size": "-4"}, {"size": "-28"}, {"size": "-29"}, {"size": "960"}]}, {"dim": [{"size": "1"}, {"size": "1"}, {"size": "960"}, {"size": "160"}]}]}}, "filter_format": {"s": "SFdJTw=="}, "data_format": {"s": "TkhXQw=="}, "strides": {"list": {"i": ["1", "1", "1", "1"]}}, "num_args": {"i": "1"}, "fused_ops": {"list": {"s": ["Qmlhc0FkZA=="]}}, "TArgs": {"list": {"type": ["DT_FLOAT"]}}, "padding": {"s": "U0FNRQ=="}, "use_cudnn_on_gpu": {"b": true}, "leakyrelu_alpha": {"f": 0.2}, "epsilon": {"f": 0.0}, "T": {"type": "DT_FLOAT"}, "explicit_paddings": {"list": {}}, "dilations": {"list": {"i": ["1", "1", "1", "1"]}}}}, {"name": "StatefulPartitionedCall/cross_dataset_ensemble/model/MobilenetV3large/expanded_conv_14/Add/add", "op": "AddV2", "input": ["StatefulPartitionedCall/cross_dataset_ensemble/model/MobilenetV3large/expanded_conv_13/Add/add", "StatefulPartitionedCall/cross_dataset_ensemble/model/MobilenetV3large/expanded_conv_14/project/BatchNorm/FusedBatchNormV3"], "attr": {"T": {"type": "DT_FLOAT"}}}, {"name": "StatefulPartitionedCall/cross_dataset_ensemble/model/MobilenetV3large/Conv_1/BatchNorm/FusedBatchNormV3", "op": "_FusedConv2D", "input": ["StatefulPartitionedCall/cross_dataset_ensemble/model/MobilenetV3large/expanded_conv_14/Add/add", "StatefulPartitionedCall/cross_dataset_ensemble/model/MobilenetV3large/Conv_1/Conv2D_weights", "StatefulPartitionedCall/cross_dataset_ensemble/model/MobilenetV3large/Conv_1/Conv2D_bn_offset"], "device": "/device:CPU:0", "attr": {"num_host_args": {"i": "0"}, "data_format": {"s": "TkhXQw=="}, "filter_format": {"s": "SFdJTw=="}, "_input_shapes": {"list": {"shape": [{"dim": [{"size": "-4"}, {"size": "-28"}, {"size": "-29"}, {"size": "160"}]}, {"dim": [{"size": "1"}, {"size": "1"}, {"size": "160"}, {"size": "960"}]}]}}, "strides": {"list": {"i": ["1", "1", "1", "1"]}}, "num_args": {"i": "1"}, "fused_ops": {"list": {"s": ["Qmlhc0FkZA=="]}}, "TArgs": {"list": {"type": ["DT_FLOAT"]}}, "padding": {"s": "U0FNRQ=="}, "use_cudnn_on_gpu": {"b": true}, "leakyrelu_alpha": {"f": 0.2}, "epsilon": {"f": 0.0}, "T": {"type": "DT_FLOAT"}, "explicit_paddings": {"list": {}}, "dilations": {"list": {"i": ["1", "1", "1", "1"]}}}}, {"name": "StatefulPartitionedCall/cross_dataset_ensemble/model/MobilenetV3large/tf.math.multiply_27/Mul", "op": "Mul", "input": ["StatefulPartitionedCall/cross_dataset_ensemble/model/MobilenetV3large/tf.math.multiply_27/Mul/y", "StatefulPartitionedCall/cross_dataset_ensemble/model/MobilenetV3large/Conv_1/BatchNorm/FusedBatchNormV3"], "attr": {"_grappler_ArithmeticOptimizer_MinimizeBroadcasts": {"b": true}, "T": {"type": "DT_FLOAT"}}}, {"name": "StatefulPartitionedCall/cross_dataset_ensemble/model/MobilenetV3large/tf.__operators__.add_27/AddV2", "op": "AddV2", "input": ["StatefulPartitionedCall/cross_dataset_ensemble/model/MobilenetV3large/Conv_1/BatchNorm/FusedBatchNormV3", "StatefulPartitionedCall/cross_dataset_ensemble/model/MobilenetV3large/tf.__operators__.add_27/y"], "attr": {"T": {"type": "DT_FLOAT"}}}, {"name": "StatefulPartitionedCall/cross_dataset_ensemble/model/MobilenetV3large/re_lu_38/Relu6", "op": "Relu6", "input": ["StatefulPartitionedCall/cross_dataset_ensemble/model/MobilenetV3large/tf.__operators__.add_27/AddV2"], "attr": {"T": {"type": "DT_FLOAT"}}}, {"name": "StatefulPartitionedCall/cross_dataset_ensemble/model/MobilenetV3large/multiply_19/mul", "op": "Mul", "input": ["StatefulPartitionedCall/cross_dataset_ensemble/model/MobilenetV3large/tf.math.multiply_27/Mul", "StatefulPartitionedCall/cross_dataset_ensemble/model/MobilenetV3large/re_lu_38/Relu6"], "attr": {"_grappler_ArithmeticOptimizer_MinimizeBroadcasts": {"b": true}, "T": {"type": "DT_FLOAT"}}}, {"name": "StatefulPartitionedCall/cross_dataset_ensemble/model/global_average_pooling2d/Mean", "op": "Mean", "input": ["StatefulPartitionedCall/cross_dataset_ensemble/model/MobilenetV3large/multiply_19/mul", "StatefulPartitionedCall/cross_dataset_ensemble/model/global_average_pooling2d/Mean/reduction_indices"], "attr": {"T": {"type": "DT_FLOAT"}, "Tidx": {"type": "DT_INT32"}, "keep_dims": {"b": false}}}, {"name": "StatefulPartitionedCall/cross_dataset_ensemble/model/dense/Relu", "op": "_FusedMatMul", "input": ["StatefulPartitionedCall/cross_dataset_ensemble/model/global_average_pooling2d/Mean", "StatefulPartitionedCall/cross_dataset_ensemble/model/dense/MatMul/ReadVariableOp", "StatefulPartitionedCall/cross_dataset_ensemble/model/dense/BiasAdd/ReadVariableOp"], "device": "/device:CPU:0", "attr": {"transpose_a": {"b": false}, "_input_shapes": {"list": {"shape": [{"dim": [{"size": "-4"}, {"size": "960"}]}, {"dim": [{"size": "960"}, {"size": "256"}]}]}}, "transpose_b": {"b": false}, "fused_ops": {"list": {"s": ["Qmlhc0FkZA==", "UmVsdQ=="]}}, "num_args": {"i": "1"}, "leakyrelu_alpha": {"f": 0.2}, "epsilon": {"f": 0.0}, "T": {"type": "DT_FLOAT"}}}, {"name": "StatefulPartitionedCall/cross_dataset_ensemble/model/dense_1/Relu", "op": "_FusedMatMul", "input": ["StatefulPartitionedCall/cross_dataset_ensemble/model/dense/Relu", "StatefulPartitionedCall/cross_dataset_ensemble/model/dense_1/MatMul/ReadVariableOp", "StatefulPartitionedCall/cross_dataset_ensemble/model/dense_1/BiasAdd/ReadVariableOp"], "device": "/device:CPU:0", "attr": {"transpose_a": {"b": false}, "_input_shapes": {"list": {"shape": [{"dim": [{"size": "-4"}, {"size": "256"}]}, {"dim": [{"size": "256"}, {"size": "128"}]}]}}, "transpose_b": {"b": false}, "fused_ops": {"list": {"s": ["Qmlhc0FkZA==", "UmVsdQ=="]}}, "num_args": {"i": "1"}, "leakyrelu_alpha": {"f": 0.2}, "epsilon": {"f": 0.0}, "T": {"type": "DT_FLOAT"}}}, {"name": "StatefulPartitionedCall/cross_dataset_ensemble/model/emotion_output/BiasAdd", "op": "_FusedMatMul", "input": ["StatefulPartitionedCall/cross_dataset_ensemble/model/dense_1/Relu", "StatefulPartitionedCall/cross_dataset_ensemble/model/emotion_output/MatMul/ReadVariableOp", "StatefulPartitionedCall/cross_dataset_ensemble/model/emotion_output/BiasAdd/ReadVariableOp"], "device": "/device:CPU:0", "attr": {"transpose_a": {"b": false}, "_input_shapes": {"list": {"shape": [{"dim": [{"size": "-4"}, {"size": "128"}]}, {"dim": [{"size": "128"}, {"size": "7"}]}]}}, "transpose_b": {"b": false}, "fused_ops": {"list": {"s": ["Qmlhc0FkZA=="]}}, "num_args": {"i": "1"}, "leakyrelu_alpha": {"f": 0.2}, "epsilon": {"f": 0.0}, "T": {"type": "DT_FLOAT"}}}, {"name": "StatefulPartitionedCall/cross_dataset_ensemble/model/emotion_output/Softmax", "op": "Softmax", "input": ["StatefulPartitionedCall/cross_dataset_ensemble/model/emotion_output/BiasAdd"], "attr": {"T": {"type": "DT_FLOAT"}}}, {"name": "StatefulPartitionedCall/cross_dataset_ensemble/tf.math.multiply_29/Mul", "op": "Mul", "input": ["unknown_324", "StatefulPartitionedCall/cross_dataset_ensemble/model/emotion_output/Softmax"], "attr": {"T": {"type": "DT_FLOAT"}}}, {"name": "StatefulPartitionedCall/cross_dataset_ensemble/ensemble_fusion/add", "op": "AddV2", "input": ["StatefulPartitionedCall/cross_dataset_ensemble/tf.math.multiply_28/Mul", "StatefulPartitionedCall/cross_dataset_ensemble/tf.math.multiply_29/Mul"], "attr": {"T": {"type": "DT_FLOAT"}}}, {"name": "StatefulPartitionedCall/cross_dataset_ensemble/emotion_probs/Softmax", "op": "Softmax", "input": ["StatefulPartitionedCall/cross_dataset_ensemble/ensemble_fusion/add"], "attr": {"T": {"type": "DT_FLOAT"}}}, {"name": "Identity", "op": "Identity", "input": ["StatefulPartitionedCall/cross_dataset_ensemble/emotion_probs/Softmax"], "attr": {"T": {"type": "DT_FLOAT"}}}], "library": {}, "versions": {"producer": 1645}}, "weightsManifest": [{"paths": ["group1-shard1of5.bin", "group1-shard2of5.bin", "group1-shard3of5.bin", "group1-shard4of5.bin", "group1-shard5of5.bin"], "weights": [{"name": "unknown_323", "shape": [], "dtype": "float32"}, {"name": "StatefulPartitionedCall/cross_dataset_ensemble/tf.image.rgb_to_grayscale/rgb_to_grayscale/Tensordot/Const", "shape": [1], "dtype": "int32"}, {"name": "StatefulPartitionedCall/cross_dataset_ensemble/tf.image.rgb_to_grayscale/rgb_to_grayscale/Tensordot/axes", "shape": [1], "dtype": "int32"}, {"name": "StatefulPartitionedCall/cross_dataset_ensemble/tf.image.rgb_to_grayscale/rgb_to_grayscale/Tensordot/GatherV2_1/axis", "shape": [], "dtype": "int32"}, {"name": "StatefulPartitionedCall/cross_dataset_ensemble/tf.image.rgb_to_grayscale/rgb_to_grayscale/Tensordot/Const_1", "shape": [1], "dtype": "int32"}, {"name": "StatefulPartitionedCall/cross_dataset_ensemble/tf.image.rgb_to_grayscale/rgb_to_grayscale/Tensordot/Reshape_1", "shape": [3, 1], "dtype": "float32"}, {"name": "StatefulPartitionedCall/cross_dataset_ensemble/tf.image.rgb_to_grayscale/rgb_to_grayscale/Tensordot/free", "shape": [3], "dtype": "int32"}, {"name": "StatefulPartitionedCall/cross_dataset_ensemble/tf.image.rgb_to_grayscale/rgb_to_grayscale/Tensordot/GatherV2/axis", "shape": [], "dtype": "int32"}, {"name": "StatefulPartitionedCall/cross_dataset_ensemble/tf.image.rgb_to_grayscale/rgb_to_grayscale/Tensordot/Const_2", "shape": [0], "dtype": "int32"}, {"name": "StatefulPartitionedCall/cross_dataset_ensemble/tf.image.rgb_to_grayscale/rgb_to_grayscale/Tensordot/concat_1/axis", "shape": [], "dtype": "int32"}, {"name": "StatefulPartitionedCall/cross_dataset_ensemble/tf.image.rgb_to_grayscale/rgb_to_grayscale/ExpandDims/dim", "shape": [], "dtype": "int32"}, {"name": "StatefulPartitionedCall/cross_dataset_ensemble/tf.image.resize/resize/size", "shape": [2], "dtype": "int32"}, {"name": "StatefulPartitionedCall/cross_dataset_ensemble/sequential/conv2d/Conv2D/ReadVariableOp", "shape": [3, 3, 1, 32], "dtype": "float32"}, {"name": "StatefulPartitionedCall/cross_dataset_ensemble/sequential/conv2d/BiasAdd/ReadVariableOp", "shape": [32], "dtype": "float32"}, {"name": "StatefulPartitionedCall/cross_dataset_ensemble/sequential/conv2d_1/Conv2D/ReadVariableOp", "shape": [3, 3, 32, 32], "dtype": "float32"}, {"name": "StatefulPartitionedCall/cross_dataset_ensemble/sequential/conv2d_1/BiasAdd/ReadVariableOp", "shape": [32], "dtype": "float32"}, {"name": "StatefulPartitionedCall/cross_dataset_ensemble/sequential/conv2d_2/Conv2D/ReadVariableOp", "shape": [3, 3, 32, 64], "dtype": "float32"}, {"name": "StatefulPartitionedCall/cross_dataset_ensemble/sequential/conv2d_2/BiasAdd/ReadVariableOp", "shape": [64], "dtype": "float32"}, {"name": "StatefulPartitionedCall/cross_dataset_ensemble/sequential/conv2d_3/Conv2D/ReadVariableOp", "shape": [3, 3, 64, 64], "dtype": "float32"}, {"name": "StatefulPartitionedCall/cross_dataset_ensemble/sequential/conv2d_3/BiasAdd/ReadVariableOp", "shape": [64], "dtype": "float32"}, {"name": "StatefulPartitionedCall/cross_dataset_ensemble/sequential/conv2d_4/Conv2D/ReadVariableOp", "shape": [3, 3, 64, 128], "dtype": "float32"}, {"name": "StatefulPartitionedCall/cross_dataset_ensemble/sequential/conv2d_4/BiasAdd/ReadVariableOp", "shape": [128], "dtype": "float32"}, {"name": "StatefulPartitionedCall/cross_dataset_ensemble/sequential/conv2d_5/Conv2D/ReadVariableOp", "shape": [3, 3, 128, 128], "dtype": "float32"}, {"name": "StatefulPartitionedCall/cross_dataset_ensemble/sequential/conv2d_5/BiasAdd/ReadVariableOp", "shape": [128], "dtype": "float32"}, {"name": "StatefulPartitionedCall/cross_dataset_ensemble/sequential/conv2d_6/Conv2D/ReadVariableOp", "shape": [3, 3, 128, 256], "dtype": "float32"}, {"name": "StatefulPartitionedCall/cross_dataset_ensemble/sequential/conv2d_6/BiasAdd/ReadVariableOp", "shape": [256], "dtype": "float32"}, {"name": "StatefulPartitionedCall/cross_dataset_ensemble/sequential/flatten/Const", "shape": [2], "dtype": "int32"}, {"name": "StatefulPartitionedCall/cross_dataset_ensemble/sequential/dense/MatMul/ReadVariableOp", "shape": [2304, 512], "dtype": "float32"}, {"name": "StatefulPartitionedCall/cross_dataset_ensemble/sequential/dense/BiasAdd/ReadVariableOp", "shape": [512], "dtype": "float32"}, {"name": "StatefulPartitionedCall/cross_dataset_ensemble/sequential/batch_normalization_7/batchnorm/mul", "shape": [512], "dtype": "float32"}, {"name": "StatefulPartitionedCall/cross_dataset_ensemble/sequential/batch_normalization_7/batchnorm/sub", "shape": [512], "dtype": "float32"}, {"name": "StatefulPartitionedCall/cross_dataset_ensemble/sequential/dense_1/MatMul/ReadVariableOp", "shape": [512, 256], "dtype": "float32"}, {"name": "StatefulPartitionedCall/cross_dataset_ensemble/sequential/dense_1/BiasAdd/ReadVariableOp", "shape": [256], "dtype": "float32"}, {"name": "StatefulPartitionedCall/cross_dataset_ensemble/sequential/batch_normalization_8/batchnorm/mul", "shape": [256], "dtype": "float32"}, {"name": "StatefulPartitionedCall/cross_dataset_ensemble/sequential/batch_normalization_8/batchnorm/sub", "shape": [256], "dtype": "float32"}, {"name": "StatefulPartitionedCall/cross_dataset_ensemble/sequential/dense_2/MatMul/ReadVariableOp", "shape": [256, 7], "dtype": "float32"}, {"name": "StatefulPartitionedCall/cross_dataset_ensemble/sequential/dense_2/BiasAdd/ReadVariableOp", "shape": [7], "dtype": "float32"}, {"name": "unknown_324", "shape": [], "dtype": "float32"}, {"name": "StatefulPartitionedCall/cross_dataset_ensemble/model/MobilenetV3large/tf.math.multiply_27/Mul/y", "shape": [], "dtype": "float32"}, {"name": "StatefulPartitionedCall/cross_dataset_ensemble/model/MobilenetV3large/tf.math.multiply_26/Mul/y", "shape": [], "dtype": "float32"}, {"name": "StatefulPartitionedCall/cross_dataset_ensemble/model/MobilenetV3large/expanded_conv_14/squeeze_excite/AvgPool/Mean/reduction_indices", "shape": [2], "dtype": "int32"}, {"name": "StatefulPartitionedCall/cross_dataset_ensemble/model/MobilenetV3large/expanded_conv_14/squeeze_excite/Conv/Conv2D/ReadVariableOp", "shape": [1, 1, 960, 240], "dtype": "float32"}, {"name": "StatefulPartitionedCall/cross_dataset_ensemble/model/MobilenetV3large/expanded_conv_14/squeeze_excite/Conv/BiasAdd/ReadVariableOp", "shape": [240], "dtype": "float32"}, {"name": "StatefulPartitionedCall/cross_dataset_ensemble/model/MobilenetV3large/expanded_conv_14/squeeze_excite/Conv_1/Conv2D/ReadVariableOp", "shape": [1, 1, 240, 960], "dtype": "float32"}, {"name": "StatefulPartitionedCall/cross_dataset_ensemble/model/MobilenetV3large/expanded_conv_14/squeeze_excite/Conv_1/BiasAdd/ReadVariableOp", "shape": [960], "dtype": "float32"}, {"name": "StatefulPartitionedCall/cross_dataset_ensemble/model/MobilenetV3large/tf.__operators__.add_26/y", "shape": [], "dtype": "float32"}, {"name": "StatefulPartitionedCall/cross_dataset_ensemble/model/MobilenetV3large/tf.math.multiply_25/Mul/y", "shape": [], "dtype": "float32"}, {"name": "StatefulPartitionedCall/cross_dataset_ensemble/model/MobilenetV3large/tf.math.multiply_24/Mul/y", "shape": [], "dtype": "float32"}, {"name": "StatefulPartitionedCall/cross_dataset_ensemble/model/MobilenetV3large/tf.math.multiply_23/Mul/y", "shape": [], "dtype": "float32"}, {"name": "StatefulPartitionedCall/cross_dataset_ensemble/model/MobilenetV3large/expanded_conv_13/squeeze_excite/AvgPool/Mean/reduction_indices", "shape": [2], "dtype": "int32"}, {"name": "StatefulPartitionedCall/cross_dataset_ensemble/model/MobilenetV3large/expanded_conv_13/squeeze_excite/Conv/Conv2D/ReadVariableOp", "shape": [1, 1, 960, 240], "dtype": "float32"}, {"name": "StatefulPartitionedCall/cross_dataset_ensemble/model/MobilenetV3large/expanded_conv_13/squeeze_excite/Conv/BiasAdd/ReadVariableOp", "shape": [240], "dtype": "float32"}, {"name": "StatefulPartitionedCall/cross_dataset_ensemble/model/MobilenetV3large/expanded_conv_13/squeeze_excite/Conv_1/Conv2D/ReadVariableOp", "shape": [1, 1, 240, 960], "dtype": "float32"}, {"name": "StatefulPartitionedCall/cross_dataset_ensemble/model/MobilenetV3large/expanded_conv_13/squeeze_excite/Conv_1/BiasAdd/ReadVariableOp", "shape": [960], "dtype": "float32"}, {"name": "StatefulPartitionedCall/cross_dataset_ensemble/model/MobilenetV3large/tf.__operators__.add_23/y", "shape": [], "dtype": "float32"}, {"name": "StatefulPartitionedCall/cross_dataset_ensemble/model/MobilenetV3large/tf.math.multiply_22/Mul/y", "shape": [], "dtype": "float32"}, {"name": "StatefulPartitionedCall/cross_dataset_ensemble/model/MobilenetV3large/tf.math.multiply_21/Mul/y", "shape": [], "dtype": "float32"}, {"name": "StatefulPartitionedCall/cross_dataset_ensemble/model/MobilenetV3large/tf.math.multiply_20/Mul/y", "shape": [], "dtype": "float32"}, {"name": "StatefulPartitionedCall/cross_dataset_ensemble/model/MobilenetV3large/expanded_conv_12/squeeze_excite/AvgPool/Mean/reduction_indices", "shape": [2], "dtype": "int32"}, {"name": "StatefulPartitionedCall/cross_dataset_ensemble/model/MobilenetV3large/expanded_conv_12/squeeze_excite/Conv/Conv2D/ReadVariableOp", "shape": [1, 1, 672, 168], "dtype": "float32"}, {"name": "StatefulPartitionedCall/cross_dataset_ensemble/model/MobilenetV3large/expanded_conv_12/squeeze_excite/Conv/BiasAdd/ReadVariableOp", "shape": [168], "dtype": "float32"}, {"name": "StatefulPartitionedCall/cross_dataset_ensemble/model/MobilenetV3large/expanded_conv_12/squeeze_excite/Conv_1/Conv2D/ReadVariableOp", "shape": [1, 1, 168, 672], "dtype": "float32"}, {"name": "StatefulPartitionedCall/cross_dataset_ensemble/model/MobilenetV3large/expanded_conv_12/squeeze_excite/Conv_1/BiasAdd/ReadVariableOp", "shape": [672], "dtype": "float32"}, {"name": "StatefulPartitionedCall/cross_dataset_ensemble/model/MobilenetV3large/tf.__operators__.add_20/y", "shape": [], "dtype": "float32"}, {"name": "StatefulPartitionedCall/cross_dataset_ensemble/model/MobilenetV3large/tf.math.multiply_19/Mul/y", "shape": [], "dtype": "float32"}, {"name": "StatefulPartitionedCall/cross_dataset_ensemble/model/MobilenetV3large/tf.math.multiply_18/Mul/y", "shape": [], "dtype": "float32"}, {"name": "StatefulPartitionedCall/cross_dataset_ensemble/model/MobilenetV3large/tf.math.multiply_17/Mul/y", "shape": [], "dtype": "float32"}, {"name": "StatefulPartitionedCall/cross_dataset_ensemble/model/MobilenetV3large/expanded_conv_11/squeeze_excite/AvgPool/Mean/reduction_indices", "shape": [2], "dtype": "int32"}, {"name": "StatefulPartitionedCall/cross_dataset_ensemble/model/MobilenetV3large/expanded_conv_11/squeeze_excite/Conv/Conv2D/ReadVariableOp", "shape": [1, 1, 672, 168], "dtype": "float32"}, {"name": "StatefulPartitionedCall/cross_dataset_ensemble/model/MobilenetV3large/expanded_conv_11/squeeze_excite/Conv/BiasAdd/ReadVariableOp", "shape": [168], "dtype": "float32"}, {"name": "StatefulPartitionedCall/cross_dataset_ensemble/model/MobilenetV3large/expanded_conv_11/squeeze_excite/Conv_1/Conv2D/ReadVariableOp", "shape": [1, 1, 168, 672], "dtype": "float32"}, {"name": "StatefulPartitionedCall/cross_dataset_ensemble/model/MobilenetV3large/expanded_conv_11/squeeze_excite/Conv_1/BiasAdd/ReadVariableOp", "shape": [672], "dtype": "float32"}, {"name": "StatefulPartitionedCall/cross_dataset_ensemble/model/MobilenetV3large/tf.__operators__.add_17/y", "shape": [], "dtype": "float32"}, {"name": "StatefulPartitionedCall/cross_dataset_ensemble/model/MobilenetV3large/tf.math.multiply_16/Mul/y", "shape": [], "dtype": "float32"}, {"name": "StatefulPartitionedCall/cross_dataset_ensemble/model/MobilenetV3large/tf.math.multiply_15/Mul/y", "shape": [], "dtype": "float32"}, {"name": "StatefulPartitionedCall/cross_dataset_ensemble/model/MobilenetV3large/tf.math.multiply_14/Mul/y", "shape": [], "dtype": "float32"}, {"name": "StatefulPartitionedCall/cross_dataset_ensemble/model/MobilenetV3large/expanded_conv_10/squeeze_excite/AvgPool/Mean/reduction_indices", "shape": [2], "dtype": "int32"}, {"name": "StatefulPartitionedCall/cross_dataset_ensemble/model/MobilenetV3large/expanded_conv_10/squeeze_excite/Conv/Conv2D/ReadVariableOp", "shape": [1, 1, 480, 120], "dtype": "float32"}, {"name": "StatefulPartitionedCall/cross_dataset_ensemble/model/MobilenetV3large/expanded_conv_10/squeeze_excite/Conv/BiasAdd/ReadVariableOp", "shape": [120], "dtype": "float32"}, {"name": "StatefulPartitionedCall/cross_dataset_ensemble/model/MobilenetV3large/expanded_conv_10/squeeze_excite/Conv_1/Conv2D/ReadVariableOp", "shape": [1, 1, 120, 480], "dtype": "float32"}, {"name": "StatefulPartitionedCall/cross_dataset_ensemble/model/MobilenetV3large/expanded_conv_10/squeeze_excite/Conv_1/BiasAdd/ReadVariableOp", "shape": [480], "dtype": "float32"}, {"name": "StatefulPartitionedCall/cross_dataset_ensemble/model/MobilenetV3large/tf.__operators__.add_14/y", "shape": [], "dtype": "float32"}, {"name": "StatefulPartitionedCall/cross_dataset_ensemble/model/MobilenetV3large/tf.math.multiply_13/Mul/y", "shape": [], "dtype": "float32"}, {"name": "StatefulPartitionedCall/cross_dataset_ensemble/model/MobilenetV3large/tf.math.multiply_12/Mul/y", "shape": [], "dtype": "float32"}, {"name": "StatefulPartitionedCall/cross_dataset_ensemble/model/MobilenetV3large/tf.math.multiply_11/Mul/y", "shape": [], "dtype": "float32"}, {"name": "StatefulPartitionedCall/cross_dataset_ensemble/model/MobilenetV3large/tf.math.multiply_10/Mul/y", "shape": [], "dtype": "float32"}, {"name": "StatefulPartitionedCall/cross_dataset_ensemble/model/MobilenetV3large/tf.math.multiply_9/Mul/y", "shape": [], "dtype": "float32"}, {"name": "StatefulPartitionedCall/cross_dataset_ensemble/model/MobilenetV3large/tf.math.multiply_8/Mul/y", "shape": [], "dtype": "float32"}, {"name": "StatefulPartitionedCall/cross_dataset_ensemble/model/MobilenetV3large/tf.math.multiply_7/Mul/y", "shape": [], "dtype": "float32"}, {"name": "StatefulPartitionedCall/cross_dataset_ensemble/model/MobilenetV3large/tf.math.multiply_6/Mul/y", "shape": [], "dtype": "float32"}, {"name": "StatefulPartitionedCall/cross_dataset_ensemble/model/MobilenetV3large/tf.math.multiply_5/Mul/y", "shape": [], "dtype": "float32"}, {"name": "StatefulPartitionedCall/cross_dataset_ensemble/model/MobilenetV3large/tf.math.multiply_4/Mul/y", "shape": [], "dtype": "float32"}, {"name": "StatefulPartitionedCall/cross_dataset_ensemble/model/MobilenetV3large/tf.math.multiply_3/Mul/y", "shape": [], "dtype": "float32"}, {"name": "StatefulPartitionedCall/cross_dataset_ensemble/model/MobilenetV3large/expanded_conv_5/squeeze_excite/AvgPool/Mean/reduction_indices", "shape": [2], "dtype": "int32"}, {"name": "StatefulPartitionedCall/cross_dataset_ensemble/model/MobilenetV3large/expanded_conv_5/squeeze_excite/Conv/Conv2D/ReadVariableOp", "shape": [1, 1, 120, 32], "dtype": "float32"}, {"name": "StatefulPartitionedCall/cross_dataset_ensemble/model/MobilenetV3large/expanded_conv_5/squeeze_excite/Conv/BiasAdd/ReadVariableOp", "shape": [32], "dtype": "float32"}, {"name": "StatefulPartitionedCall/cross_dataset_ensemble/model/MobilenetV3large/expanded_conv_5/squeeze_excite/Conv_1/Conv2D/ReadVariableOp", "shape": [1, 1, 32, 120], "dtype": "float32"}, {"name": "StatefulPartitionedCall/cross_dataset_ensemble/model/MobilenetV3large/expanded_conv_5/squeeze_excite/Conv_1/BiasAdd/ReadVariableOp", "shape": [120], "dtype": "float32"}, {"name": "StatefulPartitionedCall/cross_dataset_ensemble/model/MobilenetV3large/tf.__operators__.add_3/y", "shape": [], "dtype": "float32"}, {"name": "StatefulPartitionedCall/cross_dataset_ensemble/model/MobilenetV3large/tf.math.multiply_2/Mul/y", "shape": [], "dtype": "float32"}, {"name": "StatefulPartitionedCall/cross_dataset_ensemble/model/MobilenetV3large/expanded_conv_4/squeeze_excite/AvgPool/Mean/reduction_indices", "shape": [2], "dtype": "int32"}, {"name": "StatefulPartitionedCall/cross_dataset_ensemble/model/MobilenetV3large/expanded_conv_4/squeeze_excite/Conv/Conv2D/ReadVariableOp", "shape": [1, 1, 120, 32], "dtype": "float32"}, {"name": "StatefulPartitionedCall/cross_dataset_ensemble/model/MobilenetV3large/expanded_conv_4/squeeze_excite/Conv/BiasAdd/ReadVariableOp", "shape": [32], "dtype": "float32"}, {"name": "StatefulPartitionedCall/cross_dataset_ensemble/model/MobilenetV3large/expanded_conv_4/squeeze_excite/Conv_1/Conv2D/ReadVariableOp", "shape": [1, 1, 32, 120], "dtype": "float32"}, {"name": "StatefulPartitionedCall/cross_dataset_ensemble/model/MobilenetV3large/expanded_conv_4/squeeze_excite/Conv_1/BiasAdd/ReadVariableOp", "shape": [120], "dtype": "float32"}, {"name": "StatefulPartitionedCall/cross_dataset_ensemble/model/MobilenetV3large/tf.__operators__.add_2/y", "shape": [], "dtype": "float32"}, {"name": "StatefulPartitionedCall/cross_dataset_ensemble/model/MobilenetV3large/tf.math.multiply_1/Mul/y", "shape": [], "dtype": "float32"}, {"name": "StatefulPartitionedCall/cross_dataset_ensemble/model/MobilenetV3large/expanded_conv_3/squeeze_excite/AvgPool/Mean/reduction_indices", "shape": [2], "dtype": "int32"}, {"name": "StatefulPartitionedCall/cross_dataset_ensemble/model/MobilenetV3large/expanded_conv_3/squeeze_excite/Conv/Conv2D/ReadVariableOp", "shape": [1, 1, 72, 24], "dtype": "float32"}, {"name": "StatefulPartitionedCall/cross_dataset_ensemble/model/MobilenetV3large/expanded_conv_3/squeeze_excite/Conv/BiasAdd/ReadVariableOp", "shape": [24], "dtype": "float32"}, {"name": "StatefulPartitionedCall/cross_dataset_ensemble/model/MobilenetV3large/expanded_conv_3/squeeze_excite/Conv_1/Conv2D/ReadVariableOp", "shape": [1, 1, 24, 72], "dtype": "float32"}, {"name": "StatefulPartitionedCall/cross_dataset_ensemble/model/MobilenetV3large/expanded_conv_3/squeeze_excite/Conv_1/BiasAdd/ReadVariableOp", "shape": [72], "dtype": "float32"}, {"name": "StatefulPartitionedCall/cross_dataset_ensemble/model/MobilenetV3large/tf.__operators__.add_1/y", "shape": [], "dtype": "float32"}, {"name": "StatefulPartitionedCall/cross_dataset_ensemble/model/MobilenetV3large/tf.math.multiply/Mul/y", "shape": [], "dtype": "float32"}, {"name": "StatefulPartitionedCall/cross_dataset_ensemble/model/MobilenetV3large/rescaling/Cast/x", "shape": [], "dtype": "float32"}, {"name": "StatefulPartitionedCall/cross_dataset_ensemble/model/MobilenetV3large/rescaling/Cast_1/x", "shape": [], "dtype": "float32"}, {"name": "StatefulPartitionedCall/cross_dataset_ensemble/model/MobilenetV3large/tf.__operators__.add/y", "shape": [], "dtype": "float32"}, {"name": "StatefulPartitionedCall/cross_dataset_ensemble/model/MobilenetV3large/expanded_conv_1/depthwise/pad/Pad/paddings", "shape": [4, 2], "dtype": "int32"}, {"name": "StatefulPartitionedCall/cross_dataset_ensemble/model/MobilenetV3large/expanded_conv_3/depthwise/pad/Pad/paddings", "shape": [4, 2], "dtype": "int32"}, {"name": "StatefulPartitionedCall/cross_dataset_ensemble/model/MobilenetV3large/tf.__operators__.add_4/y", "shape": [], "dtype": "float32"}, {"name": "StatefulPartitionedCall/cross_dataset_ensemble/model/MobilenetV3large/expanded_conv_6/depthwise/pad/Pad/paddings", "shape": [4, 2], "dtype": "int32"}, {"name": "StatefulPartitionedCall/cross_dataset_ensemble/model/MobilenetV3large/tf.__operators__.add_5/y", "shape": [], "dtype": "float32"}, {"name": "StatefulPartitionedCall/cross_dataset_ensemble/model/MobilenetV3large/tf.__operators__.add_6/y", "shape": [], "dtype": "float32"}, {"name": "StatefulPartitionedCall/cross_dataset_ensemble/model/MobilenetV3large/tf.__operators__.add_7/y", "shape": [], "dtype": "float32"}, {"name": "StatefulPartitionedCall/cross_dataset_ensemble/model/MobilenetV3large/tf.__operators__.add_8/y", "shape": [], "dtype": "float32"}, {"name": "StatefulPartitionedCall/cross_dataset_ensemble/model/MobilenetV3large/tf.__operators__.add_9/y", "shape": [], "dtype": "float32"}, {"name": "StatefulPartitionedCall/cross_dataset_ensemble/model/MobilenetV3large/tf.__operators__.add_10/y", "shape": [], "dtype": "float32"}, {"name": "StatefulPartitionedCall/cross_dataset_ensemble/model/MobilenetV3large/tf.__operators__.add_11/y", "shape": [], "dtype": "float32"}, {"name": "StatefulPartitionedCall/cross_dataset_ensemble/model/MobilenetV3large/tf.__operators__.add_12/y", "shape": [], "dtype": "float32"}, {"name": "StatefulPartitionedCall/cross_dataset_ensemble/model/MobilenetV3large/tf.__operators__.add_13/y", "shape": [], "dtype": "float32"}, {"name": "StatefulPartitionedCall/cross_dataset_ensemble/model/MobilenetV3large/tf.__operators__.add_15/y", "shape": [], "dtype": "float32"}, {"name": "StatefulPartitionedCall/cross_dataset_ensemble/model/MobilenetV3large/tf.__operators__.add_16/y", "shape": [], "dtype": "float32"}, {"name": "StatefulPartitionedCall/cross_dataset_ensemble/model/MobilenetV3large/tf.__operators__.add_18/y", "shape": [], "dtype": "float32"}, {"name": "StatefulPartitionedCall/cross_dataset_ensemble/model/MobilenetV3large/expanded_conv_12/depthwise/pad/Pad/paddings", "shape": [4, 2], "dtype": "int32"}, {"name": "StatefulPartitionedCall/cross_dataset_ensemble/model/MobilenetV3large/tf.__operators__.add_19/y", "shape": [], "dtype": "float32"}, {"name": "StatefulPartitionedCall/cross_dataset_ensemble/model/MobilenetV3large/tf.__operators__.add_21/y", "shape": [], "dtype": "float32"}, {"name": "StatefulPartitionedCall/cross_dataset_ensemble/model/MobilenetV3large/tf.__operators__.add_22/y", "shape": [], "dtype": "float32"}, {"name": "StatefulPartitionedCall/cross_dataset_ensemble/model/MobilenetV3large/tf.__operators__.add_24/y", "shape": [], "dtype": "float32"}, {"name": "StatefulPartitionedCall/cross_dataset_ensemble/model/MobilenetV3large/tf.__operators__.add_25/y", "shape": [], "dtype": "float32"}, {"name": "StatefulPartitionedCall/cross_dataset_ensemble/model/MobilenetV3large/tf.__operators__.add_27/y", "shape": [], "dtype": "float32"}, {"name": "StatefulPartitionedCall/cross_dataset_ensemble/model/global_average_pooling2d/Mean/reduction_indices", "shape": [2], "dtype": "int32"}, {"name": "StatefulPartitionedCall/cross_dataset_ensemble/model/dense/MatMul/ReadVariableOp", "shape": [960, 256], "dtype": "float32"}, {"name": "StatefulPartitionedCall/cross_dataset_ensemble/model/dense/BiasAdd/ReadVariableOp", "shape": [256], "dtype": "float32"}, {"name": "StatefulPartitionedCall/cross_dataset_ensemble/model/dense_1/MatMul/ReadVariableOp", "shape": [256, 128], "dtype": "float32"}, {"name": "StatefulPartitionedCall/cross_dataset_ensemble/model/dense_1/BiasAdd/ReadVariableOp", "shape": [128], "dtype": "float32"}, {"name": "StatefulPartitionedCall/cross_dataset_ensemble/model/emotion_output/MatMul/ReadVariableOp", "shape": [128, 7], "dtype": "float32"}, {"name": "StatefulPartitionedCall/cross_dataset_ensemble/model/emotion_output/BiasAdd/ReadVariableOp", "shape": [7], "dtype": "float32"}, {"name": "StatefulPartitionedCall/cross_dataset_ensemble/sequential/batch_normalization_1/FusedBatchNormV3/Offset", "shape": [32], "dtype": "float32"}, {"name": "StatefulPartitionedCall/cross_dataset_ensemble/model/MobilenetV3large/expanded_conv_14/project/Conv2D_weights", "shape": [1, 1, 960, 160], "dtype": "float32"}, {"name": "StatefulPartitionedCall/cross_dataset_ensemble/model/MobilenetV3large/expanded_conv_14/project/Conv2D_bn_offset", "shape": [160], "dtype": "float32"}, {"name": "StatefulPartitionedCall/cross_dataset_ensemble/model/MobilenetV3large/Conv_1/Conv2D_weights", "shape": [1, 1, 160, 960], "dtype": "float32"}, {"name": "StatefulPartitionedCall/cross_dataset_ensemble/model/MobilenetV3large/Conv_1/Conv2D_bn_offset", "shape": [960], "dtype": "float32"}, {"name": "StatefulPartitionedCall/cross_dataset_ensemble/model/MobilenetV3large/Conv/Conv2D_weights", "shape": [3, 3, 3, 16], "dtype": "float32"}, {"name": "StatefulPartitionedCall/cross_dataset_ensemble/model/MobilenetV3large/Conv/Conv2D_bn_offset", "shape": [16], "dtype": "float32"}, {"name": "StatefulPartitionedCall/cross_dataset_ensemble/model/MobilenetV3large/expanded_conv/depthwise/depthwise_weights", "shape": [3, 3, 16, 1], "dtype": "float32"}, {"name": "StatefulPartitionedCall/cross_dataset_ensemble/model/MobilenetV3large/expanded_conv/depthwise/depthwise_bn_offset", "shape": [16], "dtype": "float32"}, {"name": "StatefulPartitionedCall/cross_dataset_ensemble/model/MobilenetV3large/expanded_conv/project/Conv2D_weights", "shape": [1, 1, 16, 16], "dtype": "float32"}, {"name": "StatefulPartitionedCall/cross_dataset_ensemble/model/MobilenetV3large/expanded_conv/project/Conv2D_bn_offset", "shape": [16], "dtype": "float32"}, {"name": "StatefulPartitionedCall/cross_dataset_ensemble/model/MobilenetV3large/expanded_conv_1/expand/Conv2D_weights", "shape": [1, 1, 16, 64], "dtype": "float32"}, {"name": "StatefulPartitionedCall/cross_dataset_ensemble/model/MobilenetV3large/expanded_conv_1/expand/Conv2D_bn_offset", "shape": [64], "dtype": "float32"}, {"name": "StatefulPartitionedCall/cross_dataset_ensemble/model/MobilenetV3large/expanded_conv_1/depthwise/depthwise_weights", "shape": [3, 3, 64, 1], "dtype": "float32"}, {"name": "StatefulPartitionedCall/cross_dataset_ensemble/model/MobilenetV3large/expanded_conv_1/depthwise/depthwise_bn_offset", "shape": [64], "dtype": "float32"}, {"name": "StatefulPartitionedCall/cross_dataset_ensemble/model/MobilenetV3large/expanded_conv_1/project/Conv2D_weights", "shape": [1, 1, 64, 24], "dtype": "float32"}, {"name": "StatefulPartitionedCall/cross_dataset_ensemble/sequential/batch_normalization/FusedBatchNormV3/Scaled", "shape": [32], "dtype": "float32"}, {"name": "StatefulPartitionedCall/cross_dataset_ensemble/model/MobilenetV3large/expanded_conv_1/project/Conv2D_bn_offset", "shape": [24], "dtype": "float32"}, {"name": "StatefulPartitionedCall/cross_dataset_ensemble/model/MobilenetV3large/expanded_conv_2/expand/Conv2D_weights", "shape": [1, 1, 24, 72], "dtype": "float32"}, {"name": "StatefulPartitionedCall/cross_dataset_ensemble/model/MobilenetV3large/expanded_conv_2/expand/Conv2D_bn_offset", "shape": [72], "dtype": "float32"}, {"name": "StatefulPartitionedCall/cross_dataset_ensemble/model/MobilenetV3large/expanded_conv_2/depthwise/depthwise_weights", "shape": [3, 3, 72, 1], "dtype": "float32"}, {"name": "StatefulPartitionedCall/cross_dataset_ensemble/model/MobilenetV3large/expanded_conv_2/depthwise/depthwise_bn_offset", "shape": [72], "dtype": "float32"}, {"name": "StatefulPartitionedCall/cross_dataset_ensemble/model/MobilenetV3large/expanded_conv_2/project/Conv2D_weights", "shape": [1, 1, 72, 24], "dtype": "float32"}, {"name": "StatefulPartitionedCall/cross_dataset_ensemble/model/MobilenetV3large/expanded_conv_2/project/Conv2D_bn_offset", "shape": [24], "dtype": "float32"}, {"name": "StatefulPartitionedCall/cross_dataset_ensemble/model/MobilenetV3large/expanded_conv_3/expand/Conv2D_weights", "shape": [1, 1, 24, 72], "dtype": "float32"}, {"name": "StatefulPartitionedCall/cross_dataset_ensemble/model/MobilenetV3large/expanded_conv_3/expand/Conv2D_bn_offset", "shape": [72], "dtype": "float32"}, {"name": "StatefulPartitionedCall/cross_dataset_ensemble/sequential/batch_normalization/FusedBatchNormV3/Offset", "shape": [32], "dtype": "float32"}, {"name": "StatefulPartitionedCall/cross_dataset_ensemble/model/MobilenetV3large/expanded_conv_3/depthwise/depthwise_weights", "shape": [5, 5, 72, 1], "dtype": "float32"}, {"name": "StatefulPartitionedCall/cross_dataset_ensemble/model/MobilenetV3large/expanded_conv_3/depthwise/depthwise_bn_offset", "shape": [72], "dtype": "float32"}, {"name": "StatefulPartitionedCall/cross_dataset_ensemble/model/MobilenetV3large/expanded_conv_3/project/Conv2D_weights", "shape": [1, 1, 72, 40], "dtype": "float32"}, {"name": "StatefulPartitionedCall/cross_dataset_ensemble/model/MobilenetV3large/expanded_conv_3/project/Conv2D_bn_offset", "shape": [40], "dtype": "float32"}, {"name": "StatefulPartitionedCall/cross_dataset_ensemble/model/MobilenetV3large/expanded_conv_4/expand/Conv2D_weights", "shape": [1, 1, 40, 120], "dtype": "float32"}, {"name": "StatefulPartitionedCall/cross_dataset_ensemble/model/MobilenetV3large/expanded_conv_4/expand/Conv2D_bn_offset", "shape": [120], "dtype": "float32"}, {"name": "StatefulPartitionedCall/cross_dataset_ensemble/model/MobilenetV3large/expanded_conv_4/depthwise/depthwise_weights", "shape": [5, 5, 120, 1], "dtype": "float32"}, {"name": "StatefulPartitionedCall/cross_dataset_ensemble/model/MobilenetV3large/expanded_conv_4/depthwise/depthwise_bn_offset", "shape": [120], "dtype": "float32"}, {"name": "StatefulPartitionedCall/cross_dataset_ensemble/model/MobilenetV3large/expanded_conv_4/project/Conv2D_weights", "shape": [1, 1, 120, 40], "dtype": "float32"}, {"name": "StatefulPartitionedCall/cross_dataset_ensemble/sequential/batch_normalization_6/FusedBatchNormV3/Scaled", "shape": [256], "dtype": "float32"}, {"name": "StatefulPartitionedCall/cross_dataset_ensemble/model/MobilenetV3large/expanded_conv_4/project/Conv2D_bn_offset", "shape": [40], "dtype": "float32"}, {"name": "StatefulPartitionedCall/cross_dataset_ensemble/model/MobilenetV3large/expanded_conv_5/expand/Conv2D_weights", "shape": [1, 1, 40, 120], "dtype": "float32"}, {"name": "StatefulPartitionedCall/cross_dataset_ensemble/model/MobilenetV3large/expanded_conv_5/expand/Conv2D_bn_offset", "shape": [120], "dtype": "float32"}, {"name": "StatefulPartitionedCall/cross_dataset_ensemble/model/MobilenetV3large/expanded_conv_5/depthwise/depthwise_weights", "shape": [5, 5, 120, 1], "dtype": "float32"}, {"name": "StatefulPartitionedCall/cross_dataset_ensemble/model/MobilenetV3large/expanded_conv_5/depthwise/depthwise_bn_offset", "shape": [120], "dtype": "float32"}, {"name": "StatefulPartitionedCall/cross_dataset_ensemble/sequential/batch_normalization_6/FusedBatchNormV3/Offset", "shape": [256], "dtype": "float32"}, {"name": "StatefulPartitionedCall/cross_dataset_ensemble/model/MobilenetV3large/expanded_conv_5/project/Conv2D_weights", "shape": [1, 1, 120, 40], "dtype": "float32"}, {"name": "StatefulPartitionedCall/cross_dataset_ensemble/model/MobilenetV3large/expanded_conv_5/project/Conv2D_bn_offset", "shape": [40], "dtype": "float32"}, {"name": "StatefulPartitionedCall/cross_dataset_ensemble/model/MobilenetV3large/expanded_conv_6/expand/Conv2D_weights", "shape": [1, 1, 40, 240], "dtype": "float32"}, {"name": "StatefulPartitionedCall/cross_dataset_ensemble/sequential/batch_normalization_5/FusedBatchNormV3/Scaled", "shape": [128], "dtype": "float32"}, {"name": "StatefulPartitionedCall/cross_dataset_ensemble/model/MobilenetV3large/expanded_conv_6/expand/Conv2D_bn_offset", "shape": [240], "dtype": "float32"}, {"name": "StatefulPartitionedCall/cross_dataset_ensemble/model/MobilenetV3large/expanded_conv_6/depthwise/depthwise_weights", "shape": [3, 3, 240, 1], "dtype": "float32"}, {"name": "StatefulPartitionedCall/cross_dataset_ensemble/model/MobilenetV3large/expanded_conv_6/depthwise/depthwise_bn_offset", "shape": [240], "dtype": "float32"}, {"name": "StatefulPartitionedCall/cross_dataset_ensemble/model/MobilenetV3large/expanded_conv_6/project/Conv2D_weights", "shape": [1, 1, 240, 80], "dtype": "float32"}, {"name": "StatefulPartitionedCall/cross_dataset_ensemble/model/MobilenetV3large/expanded_conv_6/project/Conv2D_bn_offset", "shape": [80], "dtype": "float32"}, {"name": "StatefulPartitionedCall/cross_dataset_ensemble/model/MobilenetV3large/expanded_conv_7/expand/Conv2D_weights", "shape": [1, 1, 80, 200], "dtype": "float32"}, {"name": "StatefulPartitionedCall/cross_dataset_ensemble/model/MobilenetV3large/expanded_conv_7/expand/Conv2D_bn_offset", "shape": [200], "dtype": "float32"}, {"name": "StatefulPartitionedCall/cross_dataset_ensemble/model/MobilenetV3large/expanded_conv_7/depthwise/depthwise_weights", "shape": [3, 3, 200, 1], "dtype": "float32"}, {"name": "StatefulPartitionedCall/cross_dataset_ensemble/model/MobilenetV3large/expanded_conv_7/depthwise/depthwise_bn_offset", "shape": [200], "dtype": "float32"}, {"name": "StatefulPartitionedCall/cross_dataset_ensemble/model/MobilenetV3large/expanded_conv_7/project/Conv2D_weights", "shape": [1, 1, 200, 80], "dtype": "float32"}, {"name": "StatefulPartitionedCall/cross_dataset_ensemble/sequential/batch_normalization_5/FusedBatchNormV3/Offset", "shape": [128], "dtype": "float32"}, {"name": "StatefulPartitionedCall/cross_dataset_ensemble/model/MobilenetV3large/expanded_conv_7/project/Conv2D_bn_offset", "shape": [80], "dtype": "float32"}, {"name": "StatefulPartitionedCall/cross_dataset_ensemble/model/MobilenetV3large/expanded_conv_8/expand/Conv2D_weights", "shape": [1, 1, 80, 184], "dtype": "float32"}, {"name": "StatefulPartitionedCall/cross_dataset_ensemble/model/MobilenetV3large/expanded_conv_8/expand/Conv2D_bn_offset", "shape": [184], "dtype": "float32"}, {"name": "StatefulPartitionedCall/cross_dataset_ensemble/model/MobilenetV3large/expanded_conv_8/depthwise/depthwise_weights", "shape": [3, 3, 184, 1], "dtype": "float32"}, {"name": "StatefulPartitionedCall/cross_dataset_ensemble/model/MobilenetV3large/expanded_conv_8/depthwise/depthwise_bn_offset", "shape": [184], "dtype": "float32"}, {"name": "StatefulPartitionedCall/cross_dataset_ensemble/model/MobilenetV3large/expanded_conv_8/project/Conv2D_weights", "shape": [1, 1, 184, 80], "dtype": "float32"}, {"name": "StatefulPartitionedCall/cross_dataset_ensemble/model/MobilenetV3large/expanded_conv_8/project/Conv2D_bn_offset", "shape": [80], "dtype": "float32"}, {"name": "StatefulPartitionedCall/cross_dataset_ensemble/model/MobilenetV3large/expanded_conv_9/expand/Conv2D_weights", "shape": [1, 1, 80, 184], "dtype": "float32"}, {"name": "StatefulPartitionedCall/cross_dataset_ensemble/model/MobilenetV3large/expanded_conv_9/expand/Conv2D_bn_offset", "shape": [184], "dtype": "float32"}, {"name": "StatefulPartitionedCall/cross_dataset_ensemble/model/MobilenetV3large/expanded_conv_9/depthwise/depthwise_weights", "shape": [3, 3, 184, 1], "dtype": "float32"}, {"name": "StatefulPartitionedCall/cross_dataset_ensemble/model/MobilenetV3large/expanded_conv_9/depthwise/depthwise_bn_offset", "shape": [184], "dtype": "float32"}, {"name": "StatefulPartitionedCall/cross_dataset_ensemble/model/MobilenetV3large/expanded_conv_9/project/Conv2D_weights", "shape": [1, 1, 184, 80], "dtype": "float32"}, {"name": "StatefulPartitionedCall/cross_dataset_ensemble/sequential/batch_normalization_4/FusedBatchNormV3/Scaled", "shape": [128], "dtype": "float32"}, {"name": "StatefulPartitionedCall/cross_dataset_ensemble/model/MobilenetV3large/expanded_conv_9/project/Conv2D_bn_offset", "shape": [80], "dtype": "float32"}, {"name": "StatefulPartitionedCall/cross_dataset_ensemble/model/MobilenetV3large/expanded_conv_10/expand/Conv2D_weights", "shape": [1, 1, 80, 480], "dtype": "float32"}, {"name": "StatefulPartitionedCall/cross_dataset_ensemble/model/MobilenetV3large/expanded_conv_10/expand/Conv2D_bn_offset", "shape": [480], "dtype": "float32"}, {"name": "StatefulPartitionedCall/cross_dataset_ensemble/model/MobilenetV3large/expanded_conv_10/depthwise/depthwise_weights", "shape": [3, 3, 480, 1], "dtype": "float32"}, {"name": "StatefulPartitionedCall/cross_dataset_ensemble/model/MobilenetV3large/expanded_conv_10/depthwise/depthwise_bn_offset", "shape": [480], "dtype": "float32"}, {"name": "StatefulPartitionedCall/cross_dataset_ensemble/sequential/batch_normalization_4/FusedBatchNormV3/Offset", "shape": [128], "dtype": "float32"}, {"name": "StatefulPartitionedCall/cross_dataset_ensemble/model/MobilenetV3large/expanded_conv_10/project/Conv2D_weights", "shape": [1, 1, 480, 112], "dtype": "float32"}, {"name": "StatefulPartitionedCall/cross_dataset_ensemble/model/MobilenetV3large/expanded_conv_10/project/Conv2D_bn_offset", "shape": [112], "dtype": "float32"}, {"name": "StatefulPartitionedCall/cross_dataset_ensemble/model/MobilenetV3large/expanded_conv_11/expand/Conv2D_weights", "shape": [1, 1, 112, 672], "dtype": "float32"}, {"name": "StatefulPartitionedCall/cross_dataset_ensemble/model/MobilenetV3large/expanded_conv_11/expand/Conv2D_bn_offset", "shape": [672], "dtype": "float32"}, {"name": "StatefulPartitionedCall/cross_dataset_ensemble/model/MobilenetV3large/expanded_conv_11/depthwise/depthwise_weights", "shape": [3, 3, 672, 1], "dtype": "float32"}, {"name": "StatefulPartitionedCall/cross_dataset_ensemble/model/MobilenetV3large/expanded_conv_11/depthwise/depthwise_bn_offset", "shape": [672], "dtype": "float32"}, {"name": "StatefulPartitionedCall/cross_dataset_ensemble/sequential/batch_normalization_3/FusedBatchNormV3/Scaled", "shape": [64], "dtype": "float32"}, {"name": "StatefulPartitionedCall/cross_dataset_ensemble/model/MobilenetV3large/expanded_conv_11/project/Conv2D_weights", "shape": [1, 1, 672, 112], "dtype": "float32"}, {"name": "StatefulPartitionedCall/cross_dataset_ensemble/sequential/batch_normalization_3/FusedBatchNormV3/Offset", "shape": [64], "dtype": "float32"}, {"name": "StatefulPartitionedCall/cross_dataset_ensemble/model/MobilenetV3large/expanded_conv_11/project/Conv2D_bn_offset", "shape": [112], "dtype": "float32"}, {"name": "StatefulPartitionedCall/cross_dataset_ensemble/model/MobilenetV3large/expanded_conv_12/expand/Conv2D_weights", "shape": [1, 1, 112, 672], "dtype": "float32"}, {"name": "StatefulPartitionedCall/cross_dataset_ensemble/model/MobilenetV3large/expanded_conv_12/expand/Conv2D_bn_offset", "shape": [672], "dtype": "float32"}, {"name": "StatefulPartitionedCall/cross_dataset_ensemble/model/MobilenetV3large/expanded_conv_12/depthwise/depthwise_weights", "shape": [5, 5, 672, 1], "dtype": "float32"}, {"name": "StatefulPartitionedCall/cross_dataset_ensemble/model/MobilenetV3large/expanded_conv_12/depthwise/depthwise_bn_offset", "shape": [672], "dtype": "float32"}, {"name": "StatefulPartitionedCall/cross_dataset_ensemble/sequential/batch_normalization_2/FusedBatchNormV3/Scaled", "shape": [64], "dtype": "float32"}, {"name": "StatefulPartitionedCall/cross_dataset_ensemble/model/MobilenetV3large/expanded_conv_12/project/Conv2D_weights", "shape": [1, 1, 672, 160], "dtype": "float32"}, {"name": "StatefulPartitionedCall/cross_dataset_ensemble/model/MobilenetV3large/expanded_conv_12/project/Conv2D_bn_offset", "shape": [160], "dtype": "float32"}, {"name": "StatefulPartitionedCall/cross_dataset_ensemble/model/MobilenetV3large/expanded_conv_13/expand/Conv2D_weights", "shape": [1, 1, 160, 960], "dtype": "float32"}, {"name": "StatefulPartitionedCall/cross_dataset_ensemble/model/MobilenetV3large/expanded_conv_13/expand/Conv2D_bn_offset", "shape": [960], "dtype": "float32"}, {"name": "StatefulPartitionedCall/cross_dataset_ensemble/model/MobilenetV3large/expanded_conv_13/depthwise/depthwise_weights", "shape": [5, 5, 960, 1], "dtype": "float32"}, {"name": "StatefulPartitionedCall/cross_dataset_ensemble/model/MobilenetV3large/expanded_conv_13/depthwise/depthwise_bn_offset", "shape": [960], "dtype": "float32"}, {"name": "StatefulPartitionedCall/cross_dataset_ensemble/sequential/batch_normalization_2/FusedBatchNormV3/Offset", "shape": [64], "dtype": "float32"}, {"name": "StatefulPartitionedCall/cross_dataset_ensemble/model/MobilenetV3large/expanded_conv_13/project/Conv2D_weights", "shape": [1, 1, 960, 160], "dtype": "float32"}, {"name": "StatefulPartitionedCall/cross_dataset_ensemble/model/MobilenetV3large/expanded_conv_13/project/Conv2D_bn_offset", "shape": [160], "dtype": "float32"}, {"name": "StatefulPartitionedCall/cross_dataset_ensemble/model/MobilenetV3large/expanded_conv_14/expand/Conv2D_weights", "shape": [1, 1, 160, 960], "dtype": "float32"}, {"name": "StatefulPartitionedCall/cross_dataset_ensemble/sequential/batch_normalization_1/FusedBatchNormV3/Scaled", "shape": [32], "dtype": "float32"}, {"name": "StatefulPartitionedCall/cross_dataset_ensemble/model/MobilenetV3large/expanded_conv_14/expand/Conv2D_bn_offset", "shape": [960], "dtype": "float32"}, {"name": "StatefulPartitionedCall/cross_dataset_ensemble/model/MobilenetV3large/expanded_conv_14/depthwise/depthwise_weights", "shape": [5, 5, 960, 1], "dtype": "float32"}, {"name": "StatefulPartitionedCall/cross_dataset_ensemble/model/MobilenetV3large/expanded_conv_14/depthwise/depthwise_bn_offset", "shape": [960], "dtype": "float32"}]}]}